{"format": "graph-model", "generatedBy": "2.12.0", "convertedBy": "TensorFlow.js Converter v2.0.0", "userDefinedMetadata": {"signature": {"outputs": {"Identity:0": {"name": "Identity:0"}}}}, "modelTopology": {"node": [{"name": "ConstantFolding/PartitionedCall/model_1/tf.math.divide/truediv_recip", "op": "Const", "attr": {"value": {"tensor": {"dtype": "DT_FLOAT", "tensorShape": {"dim": [{"size": "1"}, {"size": "1"}, {"size": "1"}]}}}, "dtype": {"type": "DT_FLOAT"}}}, {"name": "8355", "op": "Const", "attr": {"value": {"tensor": {"dtype": "DT_FLOAT", "tensorShape": {"dim": [{"size": "1"}, {"size": "2"}, {"size": "8400"}]}}}, "dtype": {"type": "DT_FLOAT"}}}, {"name": "8347", "op": "Const", "attr": {"dtype": {"type": "DT_INT64"}, "value": {"tensor": {"dtype": "DT_INT64", "tensorShape": {"dim": [{"size": "3"}]}}}}}, {"name": "8349", "op": "Const", "attr": {"value": {"tensor": {"dtype": "DT_INT64", "tensorShape": {"dim": [{"size": "3"}]}}}, "dtype": {"type": "DT_INT64"}}}, {"name": "PartitionedCall/model_1/tf.strided_slice_19/ones_like", "op": "Const", "attr": {"dtype": {"type": "DT_INT64"}, "value": {"tensor": {"dtype": "DT_INT64", "tensorShape": {"dim": [{"size": "3"}]}}}}}, {"name": "8357", "op": "Const", "attr": {"value": {"tensor": {"dtype": "DT_FLOAT", "tensorShape": {"dim": [{"size": "1"}, {"size": "2"}, {"size": "8400"}]}}}, "dtype": {"type": "DT_FLOAT"}}}, {"name": "8341", "op": "Const", "attr": {"value": {"tensor": {"dtype": "DT_INT64", "tensorShape": {"dim": [{"size": "3"}]}}}, "dtype": {"type": "DT_INT64"}}}, {"name": "8343", "op": "Const", "attr": {"value": {"tensor": {"dtype": "DT_INT64", "tensorShape": {"dim": [{"size": "3"}]}}}, "dtype": {"type": "DT_INT64"}}}, {"name": "PartitionedCall/model_1/tf.strided_slice_16/StridedSlice/strides", "op": "Const", "attr": {"value": {"tensor": {"dtype": "DT_INT64", "tensorShape": {"dim": [{"size": "3"}]}}}, "dtype": {"type": "DT_INT64"}}}, {"name": "PartitionedCall/model_1/tf.reshape_3/Reshape/shape", "op": "Const", "attr": {"value": {"tensor": {"dtype": "DT_INT32", "tensorShape": {"dim": [{"size": "4"}]}}}, "dtype": {"type": "DT_INT32"}}}, {"name": "PartitionedCall/model_1/tf.compat.v1.transpose_4/transpose/perm", "op": "Const", "attr": {"dtype": {"type": "DT_INT32"}, "value": {"tensor": {"dtype": "DT_INT32", "tensorShape": {"dim": [{"size": "4"}]}}}}}, {"name": "PartitionedCall/model_1/tf.compat.v1.transpose_5/transpose/perm", "op": "Const", "attr": {"dtype": {"type": "DT_INT32"}, "value": {"tensor": {"dtype": "DT_INT32", "tensorShape": {"dim": [{"size": "4"}]}}}}}, {"name": "8345", "op": "Const", "attr": {"value": {"tensor": {"dtype": "DT_FLOAT", "tensorShape": {"dim": [{"size": "1"}, {"size": "1"}, {"size": "16"}, {"size": "1"}]}}}, "dtype": {"type": "DT_FLOAT"}}}, {"name": "PartitionedCall/model_1/tf.compat.v1.transpose_8/transpose/perm", "op": "Const", "attr": {"dtype": {"type": "DT_INT32"}, "value": {"tensor": {"dtype": "DT_INT32", "tensorShape": {"dim": [{"size": "4"}]}}}}}, {"name": "PartitionedCall/model_1/tf.reshape_4/Reshape/shape", "op": "Const", "attr": {"value": {"tensor": {"dtype": "DT_INT32", "tensorShape": {"dim": [{"size": "3"}]}}}, "dtype": {"type": "DT_INT32"}}}, {"name": "8351", "op": "Const", "attr": {"dtype": {"type": "DT_INT64"}, "value": {"tensor": {"dtype": "DT_INT64", "tensorShape": {"dim": [{"size": "3"}]}}}}}, {"name": "8353", "op": "Const", "attr": {"value": {"tensor": {"dtype": "DT_INT64", "tensorShape": {"dim": [{"size": "3"}]}}}, "dtype": {"type": "DT_INT64"}}}, {"name": "PartitionedCall/model_1/tf.strided_slice_18/ones_like", "op": "Const", "attr": {"dtype": {"type": "DT_INT64"}, "value": {"tensor": {"dtype": "DT_INT64", "tensorShape": {"dim": [{"size": "3"}]}}}}}, {"name": "PartitionedCall/model_1/tf.concat_17/concat/axis", "op": "Const", "attr": {"dtype": {"type": "DT_INT32"}, "value": {"tensor": {"dtype": "DT_INT32", "tensorShape": {}}}}}, {"name": "PartitionedCall/model_1/tf.math.multiply_185/Mul/y", "op": "Const", "attr": {"dtype": {"type": "DT_FLOAT"}, "value": {"tensor": {"dtype": "DT_FLOAT", "tensorShape": {"dim": [{"size": "1"}, {"size": "1"}, {"size": "8400"}]}}}}}, {"name": "8279", "op": "Const", "attr": {"value": {"tensor": {"dtype": "DT_FLOAT", "tensorShape": {"dim": [{"size": "3"}, {"size": "3"}, {"size": "64"}, {"size": "64"}]}}}, "dtype": {"type": "DT_FLOAT"}}}, {"name": "8291", "op": "Const", "attr": {"value": {"tensor": {"dtype": "DT_FLOAT", "tensorShape": {"dim": [{"size": "64"}]}}}, "dtype": {"type": "DT_FLOAT"}}}, {"name": "8303", "op": "Const", "attr": {"value": {"tensor": {"dtype": "DT_FLOAT", "tensorShape": {"dim": [{"size": "3"}, {"size": "3"}, {"size": "64"}, {"size": "64"}]}}}, "dtype": {"type": "DT_FLOAT"}}}, {"name": "8315", "op": "Const", "attr": {"value": {"tensor": {"dtype": "DT_FLOAT", "tensorShape": {"dim": [{"size": "64"}]}}}, "dtype": {"type": "DT_FLOAT"}}}, {"name": "8327", "op": "Const", "attr": {"dtype": {"type": "DT_FLOAT"}, "value": {"tensor": {"dtype": "DT_FLOAT", "tensorShape": {"dim": [{"size": "1"}, {"size": "1"}, {"size": "64"}, {"size": "64"}]}}}}}, {"name": "8337", "op": "Const", "attr": {"dtype": {"type": "DT_FLOAT"}, "value": {"tensor": {"dtype": "DT_FLOAT", "tensorShape": {"dim": [{"size": "64"}]}}}}}, {"name": "8277", "op": "Const", "attr": {"value": {"tensor": {"dtype": "DT_FLOAT", "tensorShape": {"dim": [{"size": "3"}, {"size": "3"}, {"size": "64"}, {"size": "64"}]}}}, "dtype": {"type": "DT_FLOAT"}}}, {"name": "8289", "op": "Const", "attr": {"value": {"tensor": {"dtype": "DT_FLOAT", "tensorShape": {"dim": [{"size": "64"}]}}}, "dtype": {"type": "DT_FLOAT"}}}, {"name": "8301", "op": "Const", "attr": {"value": {"tensor": {"dtype": "DT_FLOAT", "tensorShape": {"dim": [{"size": "3"}, {"size": "3"}, {"size": "64"}, {"size": "64"}]}}}, "dtype": {"type": "DT_FLOAT"}}}, {"name": "8313", "op": "Const", "attr": {"value": {"tensor": {"dtype": "DT_FLOAT", "tensorShape": {"dim": [{"size": "64"}]}}}, "dtype": {"type": "DT_FLOAT"}}}, {"name": "8325", "op": "Const", "attr": {"value": {"tensor": {"dtype": "DT_FLOAT", "tensorShape": {"dim": [{"size": "1"}, {"size": "1"}, {"size": "64"}, {"size": "19"}]}}}, "dtype": {"type": "DT_FLOAT"}}}, {"name": "8339", "op": "Const", "attr": {"value": {"tensor": {"dtype": "DT_FLOAT", "tensorShape": {"dim": [{"size": "19"}]}}}, "dtype": {"type": "DT_FLOAT"}}}, {"name": "PartitionedCall/model_1/tf.concat_10/concat/axis", "op": "Const", "attr": {"value": {"tensor": {"dtype": "DT_INT32", "tensorShape": {}}}, "dtype": {"type": "DT_INT32"}}}, {"name": "PartitionedCall/model_1/tf.compat.v1.transpose/transpose/perm", "op": "Const", "attr": {"dtype": {"type": "DT_INT32"}, "value": {"tensor": {"dtype": "DT_INT32", "tensorShape": {"dim": [{"size": "4"}]}}}}}, {"name": "PartitionedCall/model_1/tf.reshape/Reshape/shape", "op": "Const", "attr": {"value": {"tensor": {"dtype": "DT_INT32", "tensorShape": {"dim": [{"size": "3"}]}}}, "dtype": {"type": "DT_INT32"}}}, {"name": "8275", "op": "Const", "attr": {"dtype": {"type": "DT_FLOAT"}, "value": {"tensor": {"dtype": "DT_FLOAT", "tensorShape": {"dim": [{"size": "3"}, {"size": "3"}, {"size": "128"}, {"size": "64"}]}}}}}, {"name": "8287", "op": "Const", "attr": {"value": {"tensor": {"dtype": "DT_FLOAT", "tensorShape": {"dim": [{"size": "64"}]}}}, "dtype": {"type": "DT_FLOAT"}}}, {"name": "8299", "op": "Const", "attr": {"value": {"tensor": {"dtype": "DT_FLOAT", "tensorShape": {"dim": [{"size": "3"}, {"size": "3"}, {"size": "64"}, {"size": "64"}]}}}, "dtype": {"type": "DT_FLOAT"}}}, {"name": "8311", "op": "Const", "attr": {"dtype": {"type": "DT_FLOAT"}, "value": {"tensor": {"dtype": "DT_FLOAT", "tensorShape": {"dim": [{"size": "64"}]}}}}}, {"name": "8323", "op": "Const", "attr": {"dtype": {"type": "DT_FLOAT"}, "value": {"tensor": {"dtype": "DT_FLOAT", "tensorShape": {"dim": [{"size": "1"}, {"size": "1"}, {"size": "64"}, {"size": "64"}]}}}}}, {"name": "8333", "op": "Const", "attr": {"dtype": {"type": "DT_FLOAT"}, "value": {"tensor": {"dtype": "DT_FLOAT", "tensorShape": {"dim": [{"size": "64"}]}}}}}, {"name": "8273", "op": "Const", "attr": {"dtype": {"type": "DT_FLOAT"}, "value": {"tensor": {"dtype": "DT_FLOAT", "tensorShape": {"dim": [{"size": "3"}, {"size": "3"}, {"size": "128"}, {"size": "64"}]}}}}}, {"name": "8285", "op": "Const", "attr": {"dtype": {"type": "DT_FLOAT"}, "value": {"tensor": {"dtype": "DT_FLOAT", "tensorShape": {"dim": [{"size": "64"}]}}}}}, {"name": "8297", "op": "Const", "attr": {"value": {"tensor": {"dtype": "DT_FLOAT", "tensorShape": {"dim": [{"size": "3"}, {"size": "3"}, {"size": "64"}, {"size": "64"}]}}}, "dtype": {"type": "DT_FLOAT"}}}, {"name": "8309", "op": "Const", "attr": {"value": {"tensor": {"dtype": "DT_FLOAT", "tensorShape": {"dim": [{"size": "64"}]}}}, "dtype": {"type": "DT_FLOAT"}}}, {"name": "8321", "op": "Const", "attr": {"dtype": {"type": "DT_FLOAT"}, "value": {"tensor": {"dtype": "DT_FLOAT", "tensorShape": {"dim": [{"size": "1"}, {"size": "1"}, {"size": "64"}, {"size": "19"}]}}}}}, {"name": "8335", "op": "Const", "attr": {"value": {"tensor": {"dtype": "DT_FLOAT", "tensorShape": {"dim": [{"size": "19"}]}}}, "dtype": {"type": "DT_FLOAT"}}}, {"name": "PartitionedCall/model_1/tf.concat_13/concat/axis", "op": "Const", "attr": {"dtype": {"type": "DT_INT32"}, "value": {"tensor": {"dtype": "DT_INT32", "tensorShape": {}}}}}, {"name": "PartitionedCall/model_1/tf.compat.v1.transpose_1/transpose/perm", "op": "Const", "attr": {"dtype": {"type": "DT_INT32"}, "value": {"tensor": {"dtype": "DT_INT32", "tensorShape": {"dim": [{"size": "4"}]}}}}}, {"name": "PartitionedCall/model_1/tf.reshape_1/Reshape/shape", "op": "Const", "attr": {"dtype": {"type": "DT_INT32"}, "value": {"tensor": {"dtype": "DT_INT32", "tensorShape": {"dim": [{"size": "3"}]}}}}}, {"name": "8271", "op": "Const", "attr": {"dtype": {"type": "DT_FLOAT"}, "value": {"tensor": {"dtype": "DT_FLOAT", "tensorShape": {"dim": [{"size": "3"}, {"size": "3"}, {"size": "256"}, {"size": "64"}]}}}}}, {"name": "8283", "op": "Const", "attr": {"dtype": {"type": "DT_FLOAT"}, "value": {"tensor": {"dtype": "DT_FLOAT", "tensorShape": {"dim": [{"size": "64"}]}}}}}, {"name": "8295", "op": "Const", "attr": {"dtype": {"type": "DT_FLOAT"}, "value": {"tensor": {"dtype": "DT_FLOAT", "tensorShape": {"dim": [{"size": "3"}, {"size": "3"}, {"size": "64"}, {"size": "64"}]}}}}}, {"name": "8307", "op": "Const", "attr": {"value": {"tensor": {"dtype": "DT_FLOAT", "tensorShape": {"dim": [{"size": "64"}]}}}, "dtype": {"type": "DT_FLOAT"}}}, {"name": "8319", "op": "Const", "attr": {"dtype": {"type": "DT_FLOAT"}, "value": {"tensor": {"dtype": "DT_FLOAT", "tensorShape": {"dim": [{"size": "1"}, {"size": "1"}, {"size": "64"}, {"size": "64"}]}}}}}, {"name": "8329", "op": "Const", "attr": {"dtype": {"type": "DT_FLOAT"}, "value": {"tensor": {"dtype": "DT_FLOAT", "tensorShape": {"dim": [{"size": "64"}]}}}}}, {"name": "8261", "op": "Const", "attr": {"value": {"tensor": {"dtype": "DT_INT64", "tensorShape": {"dim": [{"size": "4"}]}}}, "dtype": {"type": "DT_INT64"}}}, {"name": "8263", "op": "Const", "attr": {"dtype": {"type": "DT_INT64"}, "value": {"tensor": {"dtype": "DT_INT64", "tensorShape": {"dim": [{"size": "4"}]}}}}}, {"name": "PartitionedCall/model_1/tf.strided_slice_14/ones_like", "op": "Const", "attr": {"dtype": {"type": "DT_INT64"}, "value": {"tensor": {"dtype": "DT_INT64", "tensorShape": {"dim": [{"size": "4"}]}}}}}, {"name": "8231", "op": "Const", "attr": {"value": {"tensor": {"dtype": "DT_INT64", "tensorShape": {"dim": [{"size": "4"}]}}}, "dtype": {"type": "DT_INT64"}}}, {"name": "8233", "op": "Const", "attr": {"value": {"tensor": {"dtype": "DT_INT64", "tensorShape": {"dim": [{"size": "4"}]}}}, "dtype": {"type": "DT_INT64"}}}, {"name": "PartitionedCall/model_1/tf.strided_slice_12/ones_like", "op": "Const", "attr": {"value": {"tensor": {"dtype": "DT_INT64", "tensorShape": {"dim": [{"size": "4"}]}}}, "dtype": {"type": "DT_INT64"}}}, {"name": "8201", "op": "Const", "attr": {"value": {"tensor": {"dtype": "DT_INT64", "tensorShape": {"dim": [{"size": "4"}]}}}, "dtype": {"type": "DT_INT64"}}}, {"name": "8203", "op": "Const", "attr": {"dtype": {"type": "DT_INT64"}, "value": {"tensor": {"dtype": "DT_INT64", "tensorShape": {"dim": [{"size": "4"}]}}}}}, {"name": "PartitionedCall/model_1/tf.strided_slice_10/ones_like", "op": "Const", "attr": {"dtype": {"type": "DT_INT64"}, "value": {"tensor": {"dtype": "DT_INT64", "tensorShape": {"dim": [{"size": "4"}]}}}}}, {"name": "PartitionedCall/model_1/lambda_1//model.13/Resize/size", "op": "Const", "attr": {"value": {"tensor": {"dtype": "DT_INT32", "tensorShape": {"dim": [{"size": "2"}]}}}, "dtype": {"type": "DT_INT32"}}}, {"name": "PartitionedCall/model_1/tf.concat_7/concat/axis", "op": "Const", "attr": {"value": {"tensor": {"dtype": "DT_INT32", "tensorShape": {}}}, "dtype": {"type": "DT_INT32"}}}, {"name": "8185", "op": "Const", "attr": {"dtype": {"type": "DT_FLOAT"}, "value": {"tensor": {"dtype": "DT_FLOAT", "tensorShape": {"dim": [{"size": "1"}, {"size": "1"}, {"size": "192"}, {"size": "64"}]}}}}}, {"name": "8187", "op": "Const", "attr": {"dtype": {"type": "DT_FLOAT"}, "value": {"tensor": {"dtype": "DT_FLOAT", "tensorShape": {"dim": [{"size": "64"}]}}}}}, {"name": "8189", "op": "Const", "attr": {"dtype": {"type": "DT_INT64"}, "value": {"tensor": {"dtype": "DT_INT64", "tensorShape": {"dim": [{"size": "4"}]}}}}}, {"name": "8191", "op": "Const", "attr": {"value": {"tensor": {"dtype": "DT_INT64", "tensorShape": {"dim": [{"size": "4"}]}}}, "dtype": {"type": "DT_INT64"}}}, {"name": "PartitionedCall/model_1/tf.strided_slice_11/ones_like", "op": "Const", "attr": {"dtype": {"type": "DT_INT64"}, "value": {"tensor": {"dtype": "DT_INT64", "tensorShape": {"dim": [{"size": "4"}]}}}}}, {"name": "8193", "op": "Const", "attr": {"value": {"tensor": {"dtype": "DT_FLOAT", "tensorShape": {"dim": [{"size": "3"}, {"size": "3"}, {"size": "32"}, {"size": "32"}]}}}, "dtype": {"type": "DT_FLOAT"}}}, {"name": "8195", "op": "Const", "attr": {"dtype": {"type": "DT_FLOAT"}, "value": {"tensor": {"dtype": "DT_FLOAT", "tensorShape": {"dim": [{"size": "32"}]}}}}}, {"name": "8197", "op": "Const", "attr": {"dtype": {"type": "DT_FLOAT"}, "value": {"tensor": {"dtype": "DT_FLOAT", "tensorShape": {"dim": [{"size": "3"}, {"size": "3"}, {"size": "32"}, {"size": "32"}]}}}}}, {"name": "8199", "op": "Const", "attr": {"value": {"tensor": {"dtype": "DT_FLOAT", "tensorShape": {"dim": [{"size": "32"}]}}}, "dtype": {"type": "DT_FLOAT"}}}, {"name": "PartitionedCall/model_1/tf.concat_8/concat/axis", "op": "Const", "attr": {"value": {"tensor": {"dtype": "DT_INT32", "tensorShape": {}}}, "dtype": {"type": "DT_INT32"}}}, {"name": "8205", "op": "Const", "attr": {"value": {"tensor": {"dtype": "DT_FLOAT", "tensorShape": {"dim": [{"size": "1"}, {"size": "1"}, {"size": "96"}, {"size": "64"}]}}}, "dtype": {"type": "DT_FLOAT"}}}, {"name": "8207", "op": "Const", "attr": {"dtype": {"type": "DT_FLOAT"}, "value": {"tensor": {"dtype": "DT_FLOAT", "tensorShape": {"dim": [{"size": "64"}]}}}}}, {"name": "8209", "op": "Const", "attr": {"dtype": {"type": "DT_INT32"}, "value": {"tensor": {"dtype": "DT_INT32", "tensorShape": {"dim": [{"size": "4"}, {"size": "2"}]}}}}}, {"name": "8211", "op": "Const", "attr": {"dtype": {"type": "DT_FLOAT"}, "value": {"tensor": {"dtype": "DT_FLOAT", "tensorShape": {"dim": [{"size": "3"}, {"size": "3"}, {"size": "64"}, {"size": "64"}]}}}}}, {"name": "8213", "op": "Const", "attr": {"value": {"tensor": {"dtype": "DT_FLOAT", "tensorShape": {"dim": [{"size": "64"}]}}}, "dtype": {"type": "DT_FLOAT"}}}, {"name": "8177", "op": "Const", "attr": {"dtype": {"type": "DT_INT64"}, "value": {"tensor": {"dtype": "DT_INT64", "tensorShape": {"dim": [{"size": "4"}]}}}}}, {"name": "8179", "op": "Const", "attr": {"value": {"tensor": {"dtype": "DT_INT64", "tensorShape": {"dim": [{"size": "4"}]}}}, "dtype": {"type": "DT_INT64"}}}, {"name": "PartitionedCall/model_1/tf.strided_slice_8/ones_like", "op": "Const", "attr": {"value": {"tensor": {"dtype": "DT_INT64", "tensorShape": {"dim": [{"size": "4"}]}}}, "dtype": {"type": "DT_INT64"}}}, {"name": "PartitionedCall/model_1/lambda//model.10/Resize/size", "op": "Const", "attr": {"dtype": {"type": "DT_INT32"}, "value": {"tensor": {"dtype": "DT_INT32", "tensorShape": {"dim": [{"size": "2"}]}}}}}, {"name": "PartitionedCall/model_1/tf.concat_5/concat/axis", "op": "Const", "attr": {"value": {"tensor": {"dtype": "DT_INT32", "tensorShape": {}}}, "dtype": {"type": "DT_INT32"}}}, {"name": "8161", "op": "Const", "attr": {"value": {"tensor": {"dtype": "DT_FLOAT", "tensorShape": {"dim": [{"size": "1"}, {"size": "1"}, {"size": "384"}, {"size": "128"}]}}}, "dtype": {"type": "DT_FLOAT"}}}, {"name": "8163", "op": "Const", "attr": {"value": {"tensor": {"dtype": "DT_FLOAT", "tensorShape": {"dim": [{"size": "128"}]}}}, "dtype": {"type": "DT_FLOAT"}}}, {"name": "8165", "op": "Const", "attr": {"value": {"tensor": {"dtype": "DT_INT64", "tensorShape": {"dim": [{"size": "4"}]}}}, "dtype": {"type": "DT_INT64"}}}, {"name": "8167", "op": "Const", "attr": {"dtype": {"type": "DT_INT64"}, "value": {"tensor": {"dtype": "DT_INT64", "tensorShape": {"dim": [{"size": "4"}]}}}}}, {"name": "PartitionedCall/model_1/tf.strided_slice_9/ones_like", "op": "Const", "attr": {"dtype": {"type": "DT_INT64"}, "value": {"tensor": {"dtype": "DT_INT64", "tensorShape": {"dim": [{"size": "4"}]}}}}}, {"name": "8169", "op": "Const", "attr": {"dtype": {"type": "DT_FLOAT"}, "value": {"tensor": {"dtype": "DT_FLOAT", "tensorShape": {"dim": [{"size": "3"}, {"size": "3"}, {"size": "64"}, {"size": "64"}]}}}}}, {"name": "8171", "op": "Const", "attr": {"value": {"tensor": {"dtype": "DT_FLOAT", "tensorShape": {"dim": [{"size": "64"}]}}}, "dtype": {"type": "DT_FLOAT"}}}, {"name": "8173", "op": "Const", "attr": {"value": {"tensor": {"dtype": "DT_FLOAT", "tensorShape": {"dim": [{"size": "3"}, {"size": "3"}, {"size": "64"}, {"size": "64"}]}}}, "dtype": {"type": "DT_FLOAT"}}}, {"name": "8175", "op": "Const", "attr": {"dtype": {"type": "DT_FLOAT"}, "value": {"tensor": {"dtype": "DT_FLOAT", "tensorShape": {"dim": [{"size": "64"}]}}}}}, {"name": "PartitionedCall/model_1/tf.concat_6/concat/axis", "op": "Const", "attr": {"value": {"tensor": {"dtype": "DT_INT32", "tensorShape": {}}}, "dtype": {"type": "DT_INT32"}}}, {"name": "8181", "op": "Const", "attr": {"value": {"tensor": {"dtype": "DT_FLOAT", "tensorShape": {"dim": [{"size": "1"}, {"size": "1"}, {"size": "192"}, {"size": "128"}]}}}, "dtype": {"type": "DT_FLOAT"}}}, {"name": "8183", "op": "Const", "attr": {"dtype": {"type": "DT_FLOAT"}, "value": {"tensor": {"dtype": "DT_FLOAT", "tensorShape": {"dim": [{"size": "128"}]}}}}}, {"name": "PartitionedCall/model_1/tf.concat_9/concat/axis", "op": "Const", "attr": {"dtype": {"type": "DT_INT32"}, "value": {"tensor": {"dtype": "DT_INT32", "tensorShape": {}}}}}, {"name": "8215", "op": "Const", "attr": {"dtype": {"type": "DT_FLOAT"}, "value": {"tensor": {"dtype": "DT_FLOAT", "tensorShape": {"dim": [{"size": "1"}, {"size": "1"}, {"size": "192"}, {"size": "128"}]}}}}}, {"name": "8217", "op": "Const", "attr": {"value": {"tensor": {"dtype": "DT_FLOAT", "tensorShape": {"dim": [{"size": "128"}]}}}, "dtype": {"type": "DT_FLOAT"}}}, {"name": "8219", "op": "Const", "attr": {"dtype": {"type": "DT_INT64"}, "value": {"tensor": {"dtype": "DT_INT64", "tensorShape": {"dim": [{"size": "4"}]}}}}}, {"name": "8221", "op": "Const", "attr": {"value": {"tensor": {"dtype": "DT_INT64", "tensorShape": {"dim": [{"size": "4"}]}}}, "dtype": {"type": "DT_INT64"}}}, {"name": "PartitionedCall/model_1/tf.strided_slice_13/ones_like", "op": "Const", "attr": {"dtype": {"type": "DT_INT64"}, "value": {"tensor": {"dtype": "DT_INT64", "tensorShape": {"dim": [{"size": "4"}]}}}}}, {"name": "8223", "op": "Const", "attr": {"value": {"tensor": {"dtype": "DT_FLOAT", "tensorShape": {"dim": [{"size": "3"}, {"size": "3"}, {"size": "64"}, {"size": "64"}]}}}, "dtype": {"type": "DT_FLOAT"}}}, {"name": "8225", "op": "Const", "attr": {"dtype": {"type": "DT_FLOAT"}, "value": {"tensor": {"dtype": "DT_FLOAT", "tensorShape": {"dim": [{"size": "64"}]}}}}}, {"name": "8227", "op": "Const", "attr": {"value": {"tensor": {"dtype": "DT_FLOAT", "tensorShape": {"dim": [{"size": "3"}, {"size": "3"}, {"size": "64"}, {"size": "64"}]}}}, "dtype": {"type": "DT_FLOAT"}}}, {"name": "8229", "op": "Const", "attr": {"value": {"tensor": {"dtype": "DT_FLOAT", "tensorShape": {"dim": [{"size": "64"}]}}}, "dtype": {"type": "DT_FLOAT"}}}, {"name": "PartitionedCall/model_1/tf.concat_11/concat/axis", "op": "Const", "attr": {"value": {"tensor": {"dtype": "DT_INT32", "tensorShape": {}}}, "dtype": {"type": "DT_INT32"}}}, {"name": "8235", "op": "Const", "attr": {"value": {"tensor": {"dtype": "DT_FLOAT", "tensorShape": {"dim": [{"size": "1"}, {"size": "1"}, {"size": "192"}, {"size": "128"}]}}}, "dtype": {"type": "DT_FLOAT"}}}, {"name": "8237", "op": "Const", "attr": {"value": {"tensor": {"dtype": "DT_FLOAT", "tensorShape": {"dim": [{"size": "128"}]}}}, "dtype": {"type": "DT_FLOAT"}}}, {"name": "8239", "op": "Const", "attr": {"value": {"tensor": {"dtype": "DT_INT32", "tensorShape": {"dim": [{"size": "4"}, {"size": "2"}]}}}, "dtype": {"type": "DT_INT32"}}}, {"name": "8241", "op": "Const", "attr": {"dtype": {"type": "DT_FLOAT"}, "value": {"tensor": {"dtype": "DT_FLOAT", "tensorShape": {"dim": [{"size": "3"}, {"size": "3"}, {"size": "128"}, {"size": "128"}]}}}}}, {"name": "8243", "op": "Const", "attr": {"value": {"tensor": {"dtype": "DT_FLOAT", "tensorShape": {"dim": [{"size": "128"}]}}}, "dtype": {"type": "DT_FLOAT"}}}, {"name": "8145", "op": "Const", "attr": {"value": {"tensor": {"dtype": "DT_INT64", "tensorShape": {"dim": [{"size": "4"}]}}}, "dtype": {"type": "DT_INT64"}}}, {"name": "8147", "op": "Const", "attr": {"dtype": {"type": "DT_INT64"}, "value": {"tensor": {"dtype": "DT_INT64", "tensorShape": {"dim": [{"size": "4"}]}}}}}, {"name": "PartitionedCall/model_1/tf.strided_slice_6/ones_like", "op": "Const", "attr": {"value": {"tensor": {"dtype": "DT_INT64", "tensorShape": {"dim": [{"size": "4"}]}}}, "dtype": {"type": "DT_INT64"}}}, {"name": "8115", "op": "Const", "attr": {"dtype": {"type": "DT_INT64"}, "value": {"tensor": {"dtype": "DT_INT64", "tensorShape": {"dim": [{"size": "4"}]}}}}}, {"name": "8117", "op": "Const", "attr": {"value": {"tensor": {"dtype": "DT_INT64", "tensorShape": {"dim": [{"size": "4"}]}}}, "dtype": {"type": "DT_INT64"}}}, {"name": "PartitionedCall/model_1/tf.strided_slice_4/ones_like", "op": "Const", "attr": {"value": {"tensor": {"dtype": "DT_INT64", "tensorShape": {"dim": [{"size": "4"}]}}}, "dtype": {"type": "DT_INT64"}}}, {"name": "8077", "op": "Const", "attr": {"dtype": {"type": "DT_INT64"}, "value": {"tensor": {"dtype": "DT_INT64", "tensorShape": {"dim": [{"size": "4"}]}}}}}, {"name": "8079", "op": "Const", "attr": {"dtype": {"type": "DT_INT64"}, "value": {"tensor": {"dtype": "DT_INT64", "tensorShape": {"dim": [{"size": "4"}]}}}}}, {"name": "PartitionedCall/model_1/tf.strided_slice_2/ones_like", "op": "Const", "attr": {"dtype": {"type": "DT_INT64"}, "value": {"tensor": {"dtype": "DT_INT64", "tensorShape": {"dim": [{"size": "4"}]}}}}}, {"name": "8039", "op": "Const", "attr": {"value": {"tensor": {"dtype": "DT_INT64", "tensorShape": {"dim": [{"size": "4"}]}}}, "dtype": {"type": "DT_INT64"}}}, {"name": "8041", "op": "Const", "attr": {"value": {"tensor": {"dtype": "DT_INT64", "tensorShape": {"dim": [{"size": "4"}]}}}, "dtype": {"type": "DT_INT64"}}}, {"name": "PartitionedCall/model_1/tf.strided_slice/ones_like", "op": "Const", "attr": {"dtype": {"type": "DT_INT64"}, "value": {"tensor": {"dtype": "DT_INT64", "tensorShape": {"dim": [{"size": "4"}]}}}}}, {"name": "8011", "op": "Const", "attr": {"dtype": {"type": "DT_INT32"}, "value": {"tensor": {"dtype": "DT_INT32", "tensorShape": {"dim": [{"size": "4"}, {"size": "2"}]}}}}}, {"name": "8013", "op": "Const", "attr": {"value": {"tensor": {"dtype": "DT_FLOAT", "tensorShape": {"dim": [{"size": "3"}, {"size": "3"}, {"size": "3"}, {"size": "16"}]}}}, "dtype": {"type": "DT_FLOAT"}}}, {"name": "8015", "op": "Const", "attr": {"value": {"tensor": {"dtype": "DT_FLOAT", "tensorShape": {"dim": [{"size": "16"}]}}}, "dtype": {"type": "DT_FLOAT"}}}, {"name": "8017", "op": "Const", "attr": {"dtype": {"type": "DT_INT32"}, "value": {"tensor": {"dtype": "DT_INT32", "tensorShape": {"dim": [{"size": "4"}, {"size": "2"}]}}}}}, {"name": "8019", "op": "Const", "attr": {"value": {"tensor": {"dtype": "DT_FLOAT", "tensorShape": {"dim": [{"size": "3"}, {"size": "3"}, {"size": "16"}, {"size": "32"}]}}}, "dtype": {"type": "DT_FLOAT"}}}, {"name": "8021", "op": "Const", "attr": {"value": {"tensor": {"dtype": "DT_FLOAT", "tensorShape": {"dim": [{"size": "32"}]}}}, "dtype": {"type": "DT_FLOAT"}}}, {"name": "8023", "op": "Const", "attr": {"dtype": {"type": "DT_FLOAT"}, "value": {"tensor": {"dtype": "DT_FLOAT", "tensorShape": {"dim": [{"size": "1"}, {"size": "1"}, {"size": "32"}, {"size": "32"}]}}}}}, {"name": "8025", "op": "Const", "attr": {"value": {"tensor": {"dtype": "DT_FLOAT", "tensorShape": {"dim": [{"size": "32"}]}}}, "dtype": {"type": "DT_FLOAT"}}}, {"name": "8027", "op": "Const", "attr": {"value": {"tensor": {"dtype": "DT_INT64", "tensorShape": {"dim": [{"size": "4"}]}}}, "dtype": {"type": "DT_INT64"}}}, {"name": "8029", "op": "Const", "attr": {"value": {"tensor": {"dtype": "DT_INT64", "tensorShape": {"dim": [{"size": "4"}]}}}, "dtype": {"type": "DT_INT64"}}}, {"name": "PartitionedCall/model_1/tf.strided_slice_1/ones_like", "op": "Const", "attr": {"dtype": {"type": "DT_INT64"}, "value": {"tensor": {"dtype": "DT_INT64", "tensorShape": {"dim": [{"size": "4"}]}}}}}, {"name": "8031", "op": "Const", "attr": {"dtype": {"type": "DT_FLOAT"}, "value": {"tensor": {"dtype": "DT_FLOAT", "tensorShape": {"dim": [{"size": "3"}, {"size": "3"}, {"size": "16"}, {"size": "16"}]}}}}}, {"name": "8033", "op": "Const", "attr": {"dtype": {"type": "DT_FLOAT"}, "value": {"tensor": {"dtype": "DT_FLOAT", "tensorShape": {"dim": [{"size": "16"}]}}}}}, {"name": "8035", "op": "Const", "attr": {"value": {"tensor": {"dtype": "DT_FLOAT", "tensorShape": {"dim": [{"size": "3"}, {"size": "3"}, {"size": "16"}, {"size": "16"}]}}}, "dtype": {"type": "DT_FLOAT"}}}, {"name": "8037", "op": "Const", "attr": {"dtype": {"type": "DT_FLOAT"}, "value": {"tensor": {"dtype": "DT_FLOAT", "tensorShape": {"dim": [{"size": "16"}]}}}}}, {"name": "PartitionedCall/model_1/tf.concat/concat/axis", "op": "Const", "attr": {"dtype": {"type": "DT_INT32"}, "value": {"tensor": {"dtype": "DT_INT32", "tensorShape": {}}}}}, {"name": "8043", "op": "Const", "attr": {"value": {"tensor": {"dtype": "DT_FLOAT", "tensorShape": {"dim": [{"size": "1"}, {"size": "1"}, {"size": "48"}, {"size": "32"}]}}}, "dtype": {"type": "DT_FLOAT"}}}, {"name": "8045", "op": "Const", "attr": {"value": {"tensor": {"dtype": "DT_FLOAT", "tensorShape": {"dim": [{"size": "32"}]}}}, "dtype": {"type": "DT_FLOAT"}}}, {"name": "8047", "op": "Const", "attr": {"dtype": {"type": "DT_INT32"}, "value": {"tensor": {"dtype": "DT_INT32", "tensorShape": {"dim": [{"size": "4"}, {"size": "2"}]}}}}}, {"name": "8049", "op": "Const", "attr": {"value": {"tensor": {"dtype": "DT_FLOAT", "tensorShape": {"dim": [{"size": "3"}, {"size": "3"}, {"size": "32"}, {"size": "64"}]}}}, "dtype": {"type": "DT_FLOAT"}}}, {"name": "8051", "op": "Const", "attr": {"value": {"tensor": {"dtype": "DT_FLOAT", "tensorShape": {"dim": [{"size": "64"}]}}}, "dtype": {"type": "DT_FLOAT"}}}, {"name": "8053", "op": "Const", "attr": {"value": {"tensor": {"dtype": "DT_FLOAT", "tensorShape": {"dim": [{"size": "1"}, {"size": "1"}, {"size": "64"}, {"size": "64"}]}}}, "dtype": {"type": "DT_FLOAT"}}}, {"name": "8055", "op": "Const", "attr": {"dtype": {"type": "DT_FLOAT"}, "value": {"tensor": {"dtype": "DT_FLOAT", "tensorShape": {"dim": [{"size": "64"}]}}}}}, {"name": "8057", "op": "Const", "attr": {"value": {"tensor": {"dtype": "DT_INT64", "tensorShape": {"dim": [{"size": "4"}]}}}, "dtype": {"type": "DT_INT64"}}}, {"name": "8059", "op": "Const", "attr": {"dtype": {"type": "DT_INT64"}, "value": {"tensor": {"dtype": "DT_INT64", "tensorShape": {"dim": [{"size": "4"}]}}}}}, {"name": "PartitionedCall/model_1/tf.strided_slice_3/ones_like", "op": "Const", "attr": {"dtype": {"type": "DT_INT64"}, "value": {"tensor": {"dtype": "DT_INT64", "tensorShape": {"dim": [{"size": "4"}]}}}}}, {"name": "8061", "op": "Const", "attr": {"dtype": {"type": "DT_FLOAT"}, "value": {"tensor": {"dtype": "DT_FLOAT", "tensorShape": {"dim": [{"size": "3"}, {"size": "3"}, {"size": "32"}, {"size": "32"}]}}}}}, {"name": "8063", "op": "Const", "attr": {"dtype": {"type": "DT_FLOAT"}, "value": {"tensor": {"dtype": "DT_FLOAT", "tensorShape": {"dim": [{"size": "32"}]}}}}}, {"name": "8065", "op": "Const", "attr": {"dtype": {"type": "DT_FLOAT"}, "value": {"tensor": {"dtype": "DT_FLOAT", "tensorShape": {"dim": [{"size": "3"}, {"size": "3"}, {"size": "32"}, {"size": "32"}]}}}}}, {"name": "8067", "op": "Const", "attr": {"value": {"tensor": {"dtype": "DT_FLOAT", "tensorShape": {"dim": [{"size": "32"}]}}}, "dtype": {"type": "DT_FLOAT"}}}, {"name": "8069", "op": "Const", "attr": {"value": {"tensor": {"dtype": "DT_FLOAT", "tensorShape": {"dim": [{"size": "3"}, {"size": "3"}, {"size": "32"}, {"size": "32"}]}}}, "dtype": {"type": "DT_FLOAT"}}}, {"name": "8071", "op": "Const", "attr": {"dtype": {"type": "DT_FLOAT"}, "value": {"tensor": {"dtype": "DT_FLOAT", "tensorShape": {"dim": [{"size": "32"}]}}}}}, {"name": "8073", "op": "Const", "attr": {"dtype": {"type": "DT_FLOAT"}, "value": {"tensor": {"dtype": "DT_FLOAT", "tensorShape": {"dim": [{"size": "3"}, {"size": "3"}, {"size": "32"}, {"size": "32"}]}}}}}, {"name": "8075", "op": "Const", "attr": {"value": {"tensor": {"dtype": "DT_FLOAT", "tensorShape": {"dim": [{"size": "32"}]}}}, "dtype": {"type": "DT_FLOAT"}}}, {"name": "PartitionedCall/model_1/tf.concat_1/concat/axis", "op": "Const", "attr": {"value": {"tensor": {"dtype": "DT_INT32", "tensorShape": {}}}, "dtype": {"type": "DT_INT32"}}}, {"name": "8081", "op": "Const", "attr": {"value": {"tensor": {"dtype": "DT_FLOAT", "tensorShape": {"dim": [{"size": "1"}, {"size": "1"}, {"size": "128"}, {"size": "64"}]}}}, "dtype": {"type": "DT_FLOAT"}}}, {"name": "8083", "op": "Const", "attr": {"dtype": {"type": "DT_FLOAT"}, "value": {"tensor": {"dtype": "DT_FLOAT", "tensorShape": {"dim": [{"size": "64"}]}}}}}, {"name": "8085", "op": "Const", "attr": {"dtype": {"type": "DT_INT32"}, "value": {"tensor": {"dtype": "DT_INT32", "tensorShape": {"dim": [{"size": "4"}, {"size": "2"}]}}}}}, {"name": "8087", "op": "Const", "attr": {"value": {"tensor": {"dtype": "DT_FLOAT", "tensorShape": {"dim": [{"size": "3"}, {"size": "3"}, {"size": "64"}, {"size": "128"}]}}}, "dtype": {"type": "DT_FLOAT"}}}, {"name": "8089", "op": "Const", "attr": {"dtype": {"type": "DT_FLOAT"}, "value": {"tensor": {"dtype": "DT_FLOAT", "tensorShape": {"dim": [{"size": "128"}]}}}}}, {"name": "8091", "op": "Const", "attr": {"dtype": {"type": "DT_FLOAT"}, "value": {"tensor": {"dtype": "DT_FLOAT", "tensorShape": {"dim": [{"size": "1"}, {"size": "1"}, {"size": "128"}, {"size": "128"}]}}}}}, {"name": "8093", "op": "Const", "attr": {"value": {"tensor": {"dtype": "DT_FLOAT", "tensorShape": {"dim": [{"size": "128"}]}}}, "dtype": {"type": "DT_FLOAT"}}}, {"name": "8095", "op": "Const", "attr": {"dtype": {"type": "DT_INT64"}, "value": {"tensor": {"dtype": "DT_INT64", "tensorShape": {"dim": [{"size": "4"}]}}}}}, {"name": "8097", "op": "Const", "attr": {"value": {"tensor": {"dtype": "DT_INT64", "tensorShape": {"dim": [{"size": "4"}]}}}, "dtype": {"type": "DT_INT64"}}}, {"name": "PartitionedCall/model_1/tf.strided_slice_5/ones_like", "op": "Const", "attr": {"dtype": {"type": "DT_INT64"}, "value": {"tensor": {"dtype": "DT_INT64", "tensorShape": {"dim": [{"size": "4"}]}}}}}, {"name": "8099", "op": "Const", "attr": {"value": {"tensor": {"dtype": "DT_FLOAT", "tensorShape": {"dim": [{"size": "3"}, {"size": "3"}, {"size": "64"}, {"size": "64"}]}}}, "dtype": {"type": "DT_FLOAT"}}}, {"name": "8101", "op": "Const", "attr": {"dtype": {"type": "DT_FLOAT"}, "value": {"tensor": {"dtype": "DT_FLOAT", "tensorShape": {"dim": [{"size": "64"}]}}}}}, {"name": "8103", "op": "Const", "attr": {"value": {"tensor": {"dtype": "DT_FLOAT", "tensorShape": {"dim": [{"size": "3"}, {"size": "3"}, {"size": "64"}, {"size": "64"}]}}}, "dtype": {"type": "DT_FLOAT"}}}, {"name": "8105", "op": "Const", "attr": {"dtype": {"type": "DT_FLOAT"}, "value": {"tensor": {"dtype": "DT_FLOAT", "tensorShape": {"dim": [{"size": "64"}]}}}}}, {"name": "8107", "op": "Const", "attr": {"value": {"tensor": {"dtype": "DT_FLOAT", "tensorShape": {"dim": [{"size": "3"}, {"size": "3"}, {"size": "64"}, {"size": "64"}]}}}, "dtype": {"type": "DT_FLOAT"}}}, {"name": "8109", "op": "Const", "attr": {"dtype": {"type": "DT_FLOAT"}, "value": {"tensor": {"dtype": "DT_FLOAT", "tensorShape": {"dim": [{"size": "64"}]}}}}}, {"name": "8111", "op": "Const", "attr": {"dtype": {"type": "DT_FLOAT"}, "value": {"tensor": {"dtype": "DT_FLOAT", "tensorShape": {"dim": [{"size": "3"}, {"size": "3"}, {"size": "64"}, {"size": "64"}]}}}}}, {"name": "8113", "op": "Const", "attr": {"value": {"tensor": {"dtype": "DT_FLOAT", "tensorShape": {"dim": [{"size": "64"}]}}}, "dtype": {"type": "DT_FLOAT"}}}, {"name": "PartitionedCall/model_1/tf.concat_2/concat/axis", "op": "Const", "attr": {"dtype": {"type": "DT_INT32"}, "value": {"tensor": {"dtype": "DT_INT32", "tensorShape": {}}}}}, {"name": "8119", "op": "Const", "attr": {"dtype": {"type": "DT_FLOAT"}, "value": {"tensor": {"dtype": "DT_FLOAT", "tensorShape": {"dim": [{"size": "1"}, {"size": "1"}, {"size": "256"}, {"size": "128"}]}}}}}, {"name": "8121", "op": "Const", "attr": {"value": {"tensor": {"dtype": "DT_FLOAT", "tensorShape": {"dim": [{"size": "128"}]}}}, "dtype": {"type": "DT_FLOAT"}}}, {"name": "8123", "op": "Const", "attr": {"dtype": {"type": "DT_INT32"}, "value": {"tensor": {"dtype": "DT_INT32", "tensorShape": {"dim": [{"size": "4"}, {"size": "2"}]}}}}}, {"name": "8125", "op": "Const", "attr": {"value": {"tensor": {"dtype": "DT_FLOAT", "tensorShape": {"dim": [{"size": "3"}, {"size": "3"}, {"size": "128"}, {"size": "256"}]}}}, "dtype": {"type": "DT_FLOAT"}}}, {"name": "8127", "op": "Const", "attr": {"value": {"tensor": {"dtype": "DT_FLOAT", "tensorShape": {"dim": [{"size": "256"}]}}}, "dtype": {"type": "DT_FLOAT"}}}, {"name": "8129", "op": "Const", "attr": {"dtype": {"type": "DT_FLOAT"}, "value": {"tensor": {"dtype": "DT_FLOAT", "tensorShape": {"dim": [{"size": "1"}, {"size": "1"}, {"size": "256"}, {"size": "256"}]}}}}}, {"name": "8131", "op": "Const", "attr": {"dtype": {"type": "DT_FLOAT"}, "value": {"tensor": {"dtype": "DT_FLOAT", "tensorShape": {"dim": [{"size": "256"}]}}}}}, {"name": "8133", "op": "Const", "attr": {"dtype": {"type": "DT_INT64"}, "value": {"tensor": {"dtype": "DT_INT64", "tensorShape": {"dim": [{"size": "4"}]}}}}}, {"name": "8135", "op": "Const", "attr": {"dtype": {"type": "DT_INT64"}, "value": {"tensor": {"dtype": "DT_INT64", "tensorShape": {"dim": [{"size": "4"}]}}}}}, {"name": "PartitionedCall/model_1/tf.strided_slice_7/ones_like", "op": "Const", "attr": {"dtype": {"type": "DT_INT64"}, "value": {"tensor": {"dtype": "DT_INT64", "tensorShape": {"dim": [{"size": "4"}]}}}}}, {"name": "8137", "op": "Const", "attr": {"value": {"tensor": {"dtype": "DT_FLOAT", "tensorShape": {"dim": [{"size": "3"}, {"size": "3"}, {"size": "128"}, {"size": "128"}]}}}, "dtype": {"type": "DT_FLOAT"}}}, {"name": "8139", "op": "Const", "attr": {"dtype": {"type": "DT_FLOAT"}, "value": {"tensor": {"dtype": "DT_FLOAT", "tensorShape": {"dim": [{"size": "128"}]}}}}}, {"name": "8141", "op": "Const", "attr": {"value": {"tensor": {"dtype": "DT_FLOAT", "tensorShape": {"dim": [{"size": "3"}, {"size": "3"}, {"size": "128"}, {"size": "128"}]}}}, "dtype": {"type": "DT_FLOAT"}}}, {"name": "8143", "op": "Const", "attr": {"dtype": {"type": "DT_FLOAT"}, "value": {"tensor": {"dtype": "DT_FLOAT", "tensorShape": {"dim": [{"size": "128"}]}}}}}, {"name": "PartitionedCall/model_1/tf.concat_3/concat/axis", "op": "Const", "attr": {"value": {"tensor": {"dtype": "DT_INT32", "tensorShape": {}}}, "dtype": {"type": "DT_INT32"}}}, {"name": "8149", "op": "Const", "attr": {"dtype": {"type": "DT_FLOAT"}, "value": {"tensor": {"dtype": "DT_FLOAT", "tensorShape": {"dim": [{"size": "1"}, {"size": "1"}, {"size": "384"}, {"size": "256"}]}}}}}, {"name": "8151", "op": "Const", "attr": {"value": {"tensor": {"dtype": "DT_FLOAT", "tensorShape": {"dim": [{"size": "256"}]}}}, "dtype": {"type": "DT_FLOAT"}}}, {"name": "8153", "op": "Const", "attr": {"dtype": {"type": "DT_FLOAT"}, "value": {"tensor": {"dtype": "DT_FLOAT", "tensorShape": {"dim": [{"size": "1"}, {"size": "1"}, {"size": "256"}, {"size": "128"}]}}}}}, {"name": "8155", "op": "Const", "attr": {"dtype": {"type": "DT_FLOAT"}, "value": {"tensor": {"dtype": "DT_FLOAT", "tensorShape": {"dim": [{"size": "128"}]}}}}}, {"name": "PartitionedCall/model_1/tf.concat_4/concat/axis", "op": "Const", "attr": {"dtype": {"type": "DT_INT32"}, "value": {"tensor": {"dtype": "DT_INT32", "tensorShape": {}}}}}, {"name": "8157", "op": "Const", "attr": {"dtype": {"type": "DT_FLOAT"}, "value": {"tensor": {"dtype": "DT_FLOAT", "tensorShape": {"dim": [{"size": "1"}, {"size": "1"}, {"size": "512"}, {"size": "256"}]}}}}}, {"name": "8159", "op": "Const", "attr": {"dtype": {"type": "DT_FLOAT"}, "value": {"tensor": {"dtype": "DT_FLOAT", "tensorShape": {"dim": [{"size": "256"}]}}}}}, {"name": "PartitionedCall/model_1/tf.concat_12/concat/axis", "op": "Const", "attr": {"dtype": {"type": "DT_INT32"}, "value": {"tensor": {"dtype": "DT_INT32", "tensorShape": {}}}}}, {"name": "8245", "op": "Const", "attr": {"value": {"tensor": {"dtype": "DT_FLOAT", "tensorShape": {"dim": [{"size": "1"}, {"size": "1"}, {"size": "384"}, {"size": "256"}]}}}, "dtype": {"type": "DT_FLOAT"}}}, {"name": "8247", "op": "Const", "attr": {"dtype": {"type": "DT_FLOAT"}, "value": {"tensor": {"dtype": "DT_FLOAT", "tensorShape": {"dim": [{"size": "256"}]}}}}}, {"name": "8249", "op": "Const", "attr": {"dtype": {"type": "DT_INT64"}, "value": {"tensor": {"dtype": "DT_INT64", "tensorShape": {"dim": [{"size": "4"}]}}}}}, {"name": "8251", "op": "Const", "attr": {"dtype": {"type": "DT_INT64"}, "value": {"tensor": {"dtype": "DT_INT64", "tensorShape": {"dim": [{"size": "4"}]}}}}}, {"name": "PartitionedCall/model_1/tf.strided_slice_15/ones_like", "op": "Const", "attr": {"dtype": {"type": "DT_INT64"}, "value": {"tensor": {"dtype": "DT_INT64", "tensorShape": {"dim": [{"size": "4"}]}}}}}, {"name": "8253", "op": "Const", "attr": {"dtype": {"type": "DT_FLOAT"}, "value": {"tensor": {"dtype": "DT_FLOAT", "tensorShape": {"dim": [{"size": "3"}, {"size": "3"}, {"size": "128"}, {"size": "128"}]}}}}}, {"name": "8255", "op": "Const", "attr": {"dtype": {"type": "DT_FLOAT"}, "value": {"tensor": {"dtype": "DT_FLOAT", "tensorShape": {"dim": [{"size": "128"}]}}}}}, {"name": "8257", "op": "Const", "attr": {"dtype": {"type": "DT_FLOAT"}, "value": {"tensor": {"dtype": "DT_FLOAT", "tensorShape": {"dim": [{"size": "3"}, {"size": "3"}, {"size": "128"}, {"size": "128"}]}}}}}, {"name": "8259", "op": "Const", "attr": {"dtype": {"type": "DT_FLOAT"}, "value": {"tensor": {"dtype": "DT_FLOAT", "tensorShape": {"dim": [{"size": "128"}]}}}}}, {"name": "PartitionedCall/model_1/tf.concat_14/concat/axis", "op": "Const", "attr": {"dtype": {"type": "DT_INT32"}, "value": {"tensor": {"dtype": "DT_INT32", "tensorShape": {}}}}}, {"name": "8265", "op": "Const", "attr": {"value": {"tensor": {"dtype": "DT_FLOAT", "tensorShape": {"dim": [{"size": "1"}, {"size": "1"}, {"size": "384"}, {"size": "256"}]}}}, "dtype": {"type": "DT_FLOAT"}}}, {"name": "8267", "op": "Const", "attr": {"dtype": {"type": "DT_FLOAT"}, "value": {"tensor": {"dtype": "DT_FLOAT", "tensorShape": {"dim": [{"size": "256"}]}}}}}, {"name": "8269", "op": "Const", "attr": {"value": {"tensor": {"dtype": "DT_FLOAT", "tensorShape": {"dim": [{"size": "3"}, {"size": "3"}, {"size": "256"}, {"size": "64"}]}}}, "dtype": {"type": "DT_FLOAT"}}}, {"name": "8281", "op": "Const", "attr": {"dtype": {"type": "DT_FLOAT"}, "value": {"tensor": {"dtype": "DT_FLOAT", "tensorShape": {"dim": [{"size": "64"}]}}}}}, {"name": "8293", "op": "Const", "attr": {"dtype": {"type": "DT_FLOAT"}, "value": {"tensor": {"dtype": "DT_FLOAT", "tensorShape": {"dim": [{"size": "3"}, {"size": "3"}, {"size": "64"}, {"size": "64"}]}}}}}, {"name": "8305", "op": "Const", "attr": {"value": {"tensor": {"dtype": "DT_FLOAT", "tensorShape": {"dim": [{"size": "64"}]}}}, "dtype": {"type": "DT_FLOAT"}}}, {"name": "8317", "op": "Const", "attr": {"dtype": {"type": "DT_FLOAT"}, "value": {"tensor": {"dtype": "DT_FLOAT", "tensorShape": {"dim": [{"size": "1"}, {"size": "1"}, {"size": "64"}, {"size": "19"}]}}}}}, {"name": "8331", "op": "Const", "attr": {"dtype": {"type": "DT_FLOAT"}, "value": {"tensor": {"dtype": "DT_FLOAT", "tensorShape": {"dim": [{"size": "19"}]}}}}}, {"name": "PartitionedCall/model_1/tf.concat_15/concat/axis", "op": "Const", "attr": {"value": {"tensor": {"dtype": "DT_INT32", "tensorShape": {}}}, "dtype": {"type": "DT_INT32"}}}, {"name": "PartitionedCall/model_1/tf.compat.v1.transpose_2/transpose/perm", "op": "Const", "attr": {"dtype": {"type": "DT_INT32"}, "value": {"tensor": {"dtype": "DT_INT32", "tensorShape": {"dim": [{"size": "4"}]}}}}}, {"name": "PartitionedCall/model_1/tf.reshape_2/Reshape/shape", "op": "Const", "attr": {"dtype": {"type": "DT_INT32"}, "value": {"tensor": {"dtype": "DT_INT32", "tensorShape": {"dim": [{"size": "3"}]}}}}}, {"name": "PartitionedCall/model_1/tf.concat_16/concat/axis", "op": "Const", "attr": {"dtype": {"type": "DT_INT32"}, "value": {"tensor": {"dtype": "DT_INT32", "tensorShape": {}}}}}, {"name": "8361", "op": "Const", "attr": {"dtype": {"type": "DT_INT64"}, "value": {"tensor": {"dtype": "DT_INT64", "tensorShape": {"dim": [{"size": "3"}]}}}}}, {"name": "8363", "op": "Const", "attr": {"dtype": {"type": "DT_INT64"}, "value": {"tensor": {"dtype": "DT_INT64", "tensorShape": {"dim": [{"size": "3"}]}}}}}, {"name": "PartitionedCall/model_1/tf.strided_slice_17/StridedSlice/strides", "op": "Const", "attr": {"dtype": {"type": "DT_INT64"}, "value": {"tensor": {"dtype": "DT_INT64", "tensorShape": {"dim": [{"size": "3"}]}}}}}, {"name": "PartitionedCall/model_1/output0/concat/axis", "op": "Const", "attr": {"value": {"tensor": {"dtype": "DT_INT32", "tensorShape": {}}}, "dtype": {"type": "DT_INT32"}}}, {"name": "x", "op": "Placeholder", "attr": {"shape": {"shape": {"dim": [{"size": "1"}, {"size": "640"}, {"size": "640"}, {"size": "3"}]}}, "dtype": {"type": "DT_FLOAT"}}}, {"name": "PartitionedCall/model_1/tf.compat.v1.pad/Pad", "op": "Pad", "input": ["x", "8011"], "attr": {"T": {"type": "DT_FLOAT"}, "Tpaddings": {"type": "DT_INT32"}}}, {"name": "PartitionedCall/model_1/tf.nn.convolution/convolution", "op": "Conv2D", "input": ["PartitionedCall/model_1/tf.compat.v1.pad/Pad", "8013"], "device": "/device:CPU:0", "attr": {"dilations": {"list": {"i": ["1", "1", "1", "1"]}}, "padding": {"s": "VkFMSUQ="}, "strides": {"list": {"i": ["1", "2", "2", "1"]}}, "explicit_paddings": {"list": {}}, "data_format": {"s": "TkhXQw=="}, "use_cudnn_on_gpu": {"b": true}, "T": {"type": "DT_FLOAT"}}}, {"name": "PartitionedCall/model_1/tf.math.add/Add", "op": "AddV2", "input": ["PartitionedCall/model_1/tf.nn.convolution/convolution", "8015"], "attr": {"T": {"type": "DT_FLOAT"}}}, {"name": "PartitionedCall/model_1/tf.math.sigmoid/Sigmoid", "op": "Sigmoid", "input": ["PartitionedCall/model_1/tf.math.add/Add"], "attr": {"T": {"type": "DT_FLOAT"}}}, {"name": "PartitionedCall/model_1/tf.math.multiply_2/Mul", "op": "Mul", "input": ["PartitionedCall/model_1/tf.math.add/Add", "PartitionedCall/model_1/tf.math.sigmoid/Sigmoid"], "attr": {"T": {"type": "DT_FLOAT"}}}, {"name": "PartitionedCall/model_1/tf.compat.v1.pad_1/Pad", "op": "Pad", "input": ["PartitionedCall/model_1/tf.math.multiply_2/Mul", "8017"], "attr": {"T": {"type": "DT_FLOAT"}, "Tpaddings": {"type": "DT_INT32"}}}, {"name": "PartitionedCall/model_1/tf.nn.convolution_1/convolution", "op": "Conv2D", "input": ["PartitionedCall/model_1/tf.compat.v1.pad_1/Pad", "8019"], "device": "/device:CPU:0", "attr": {"padding": {"s": "VkFMSUQ="}, "T": {"type": "DT_FLOAT"}, "data_format": {"s": "TkhXQw=="}, "explicit_paddings": {"list": {}}, "use_cudnn_on_gpu": {"b": true}, "dilations": {"list": {"i": ["1", "1", "1", "1"]}}, "strides": {"list": {"i": ["1", "2", "2", "1"]}}}}, {"name": "PartitionedCall/model_1/tf.math.add_1/Add", "op": "AddV2", "input": ["PartitionedCall/model_1/tf.nn.convolution_1/convolution", "8021"], "attr": {"T": {"type": "DT_FLOAT"}}}, {"name": "PartitionedCall/model_1/tf.math.sigmoid_1/Sigmoid", "op": "Sigmoid", "input": ["PartitionedCall/model_1/tf.math.add_1/Add"], "attr": {"T": {"type": "DT_FLOAT"}}}, {"name": "PartitionedCall/model_1/tf.math.multiply_5/Mul", "op": "Mul", "input": ["PartitionedCall/model_1/tf.math.add_1/Add", "PartitionedCall/model_1/tf.math.sigmoid_1/Sigmoid"], "attr": {"T": {"type": "DT_FLOAT"}}}, {"name": "PartitionedCall/model_1/tf.nn.convolution_2/convolution", "op": "Conv2D", "input": ["PartitionedCall/model_1/tf.math.multiply_5/Mul", "8023"], "device": "/device:CPU:0", "attr": {"dilations": {"list": {"i": ["1", "1", "1", "1"]}}, "padding": {"s": "U0FNRQ=="}, "T": {"type": "DT_FLOAT"}, "explicit_paddings": {"list": {}}, "use_cudnn_on_gpu": {"b": true}, "data_format": {"s": "TkhXQw=="}, "strides": {"list": {"i": ["1", "1", "1", "1"]}}}}, {"name": "PartitionedCall/model_1/tf.math.add_2/Add", "op": "AddV2", "input": ["PartitionedCall/model_1/tf.nn.convolution_2/convolution", "8025"], "attr": {"T": {"type": "DT_FLOAT"}}}, {"name": "PartitionedCall/model_1/tf.math.sigmoid_2/Sigmoid", "op": "Sigmoid", "input": ["PartitionedCall/model_1/tf.math.add_2/Add"], "attr": {"T": {"type": "DT_FLOAT"}}}, {"name": "PartitionedCall/model_1/tf.math.multiply_8/Mul", "op": "Mul", "input": ["PartitionedCall/model_1/tf.math.add_2/Add", "PartitionedCall/model_1/tf.math.sigmoid_2/Sigmoid"], "attr": {"T": {"type": "DT_FLOAT"}}}, {"name": "PartitionedCall/model_1/tf.strided_slice/StridedSlice", "op": "StridedSlice", "input": ["PartitionedCall/model_1/tf.math.multiply_8/Mul", "8039", "8041", "PartitionedCall/model_1/tf.strided_slice/ones_like"], "attr": {"Index": {"type": "DT_INT64"}, "end_mask": {"i": "7"}, "begin_mask": {"i": "15"}, "new_axis_mask": {"i": "0"}, "T": {"type": "DT_FLOAT"}, "shrink_axis_mask": {"i": "0"}, "ellipsis_mask": {"i": "0"}}}, {"name": "PartitionedCall/model_1/tf.strided_slice_1/StridedSlice", "op": "StridedSlice", "input": ["PartitionedCall/model_1/tf.math.multiply_8/Mul", "8027", "8029", "PartitionedCall/model_1/tf.strided_slice_1/ones_like"], "attr": {"Index": {"type": "DT_INT64"}, "end_mask": {"i": "7"}, "T": {"type": "DT_FLOAT"}, "ellipsis_mask": {"i": "0"}, "shrink_axis_mask": {"i": "0"}, "new_axis_mask": {"i": "0"}, "begin_mask": {"i": "7"}}}, {"name": "PartitionedCall/model_1/tf.nn.convolution_3/convolution", "op": "Conv2D", "input": ["PartitionedCall/model_1/tf.strided_slice_1/StridedSlice", "8031"], "device": "/device:CPU:0", "attr": {"explicit_paddings": {"list": {}}, "T": {"type": "DT_FLOAT"}, "data_format": {"s": "TkhXQw=="}, "use_cudnn_on_gpu": {"b": true}, "padding": {"s": "U0FNRQ=="}, "strides": {"list": {"i": ["1", "1", "1", "1"]}}, "dilations": {"list": {"i": ["1", "1", "1", "1"]}}}}, {"name": "PartitionedCall/model_1/tf.math.add_3/Add", "op": "AddV2", "input": ["PartitionedCall/model_1/tf.nn.convolution_3/convolution", "8033"], "attr": {"T": {"type": "DT_FLOAT"}}}, {"name": "PartitionedCall/model_1/tf.math.sigmoid_3/Sigmoid", "op": "Sigmoid", "input": ["PartitionedCall/model_1/tf.math.add_3/Add"], "attr": {"T": {"type": "DT_FLOAT"}}}, {"name": "PartitionedCall/model_1/tf.math.multiply_11/Mul", "op": "Mul", "input": ["PartitionedCall/model_1/tf.math.add_3/Add", "PartitionedCall/model_1/tf.math.sigmoid_3/Sigmoid"], "attr": {"T": {"type": "DT_FLOAT"}}}, {"name": "PartitionedCall/model_1/tf.nn.convolution_4/convolution", "op": "Conv2D", "input": ["PartitionedCall/model_1/tf.math.multiply_11/Mul", "8035"], "device": "/device:CPU:0", "attr": {"data_format": {"s": "TkhXQw=="}, "use_cudnn_on_gpu": {"b": true}, "dilations": {"list": {"i": ["1", "1", "1", "1"]}}, "T": {"type": "DT_FLOAT"}, "padding": {"s": "U0FNRQ=="}, "explicit_paddings": {"list": {}}, "strides": {"list": {"i": ["1", "1", "1", "1"]}}}}, {"name": "PartitionedCall/model_1/tf.math.add_4/Add", "op": "AddV2", "input": ["PartitionedCall/model_1/tf.nn.convolution_4/convolution", "8037"], "attr": {"T": {"type": "DT_FLOAT"}}}, {"name": "PartitionedCall/model_1/tf.math.sigmoid_4/Sigmoid", "op": "Sigmoid", "input": ["PartitionedCall/model_1/tf.math.add_4/Add"], "attr": {"T": {"type": "DT_FLOAT"}}}, {"name": "PartitionedCall/model_1/tf.math.multiply_14/Mul", "op": "Mul", "input": ["PartitionedCall/model_1/tf.math.add_4/Add", "PartitionedCall/model_1/tf.math.sigmoid_4/Sigmoid"], "attr": {"T": {"type": "DT_FLOAT"}}}, {"name": "PartitionedCall/model_1/tf.math.add_6/Add", "op": "AddV2", "input": ["PartitionedCall/model_1/tf.strided_slice_1/StridedSlice", "PartitionedCall/model_1/tf.math.multiply_14/Mul"], "attr": {"T": {"type": "DT_FLOAT"}}}, {"name": "PartitionedCall/model_1/tf.concat/concat", "op": "ConcatV2", "input": ["PartitionedCall/model_1/tf.strided_slice/StridedSlice", "PartitionedCall/model_1/tf.strided_slice_1/StridedSlice", "PartitionedCall/model_1/tf.math.add_6/Add", "PartitionedCall/model_1/tf.concat/concat/axis"], "attr": {"T": {"type": "DT_FLOAT"}, "N": {"i": "3"}, "Tidx": {"type": "DT_INT32"}}}, {"name": "PartitionedCall/model_1/tf.nn.convolution_5/convolution", "op": "Conv2D", "input": ["PartitionedCall/model_1/tf.concat/concat", "8043"], "device": "/device:CPU:0", "attr": {"explicit_paddings": {"list": {}}, "padding": {"s": "U0FNRQ=="}, "data_format": {"s": "TkhXQw=="}, "T": {"type": "DT_FLOAT"}, "strides": {"list": {"i": ["1", "1", "1", "1"]}}, "use_cudnn_on_gpu": {"b": true}, "dilations": {"list": {"i": ["1", "1", "1", "1"]}}}}, {"name": "PartitionedCall/model_1/tf.math.add_7/Add", "op": "AddV2", "input": ["PartitionedCall/model_1/tf.nn.convolution_5/convolution", "8045"], "attr": {"T": {"type": "DT_FLOAT"}}}, {"name": "PartitionedCall/model_1/tf.math.sigmoid_5/Sigmoid", "op": "Sigmoid", "input": ["PartitionedCall/model_1/tf.math.add_7/Add"], "attr": {"T": {"type": "DT_FLOAT"}}}, {"name": "PartitionedCall/model_1/tf.math.multiply_18/Mul", "op": "Mul", "input": ["PartitionedCall/model_1/tf.math.add_7/Add", "PartitionedCall/model_1/tf.math.sigmoid_5/Sigmoid"], "attr": {"T": {"type": "DT_FLOAT"}}}, {"name": "PartitionedCall/model_1/tf.compat.v1.pad_2/Pad", "op": "Pad", "input": ["PartitionedCall/model_1/tf.math.multiply_18/Mul", "8047"], "attr": {"Tpaddings": {"type": "DT_INT32"}, "T": {"type": "DT_FLOAT"}}}, {"name": "PartitionedCall/model_1/tf.nn.convolution_6/convolution", "op": "Conv2D", "input": ["PartitionedCall/model_1/tf.compat.v1.pad_2/Pad", "8049"], "device": "/device:CPU:0", "attr": {"explicit_paddings": {"list": {}}, "padding": {"s": "VkFMSUQ="}, "dilations": {"list": {"i": ["1", "1", "1", "1"]}}, "strides": {"list": {"i": ["1", "2", "2", "1"]}}, "T": {"type": "DT_FLOAT"}, "data_format": {"s": "TkhXQw=="}, "use_cudnn_on_gpu": {"b": true}}}, {"name": "PartitionedCall/model_1/tf.math.add_8/Add", "op": "AddV2", "input": ["PartitionedCall/model_1/tf.nn.convolution_6/convolution", "8051"], "attr": {"T": {"type": "DT_FLOAT"}}}, {"name": "PartitionedCall/model_1/tf.math.sigmoid_6/Sigmoid", "op": "Sigmoid", "input": ["PartitionedCall/model_1/tf.math.add_8/Add"], "attr": {"T": {"type": "DT_FLOAT"}}}, {"name": "PartitionedCall/model_1/tf.math.multiply_21/Mul", "op": "Mul", "input": ["PartitionedCall/model_1/tf.math.add_8/Add", "PartitionedCall/model_1/tf.math.sigmoid_6/Sigmoid"], "attr": {"T": {"type": "DT_FLOAT"}}}, {"name": "PartitionedCall/model_1/tf.nn.convolution_7/convolution", "op": "Conv2D", "input": ["PartitionedCall/model_1/tf.math.multiply_21/Mul", "8053"], "device": "/device:CPU:0", "attr": {"dilations": {"list": {"i": ["1", "1", "1", "1"]}}, "strides": {"list": {"i": ["1", "1", "1", "1"]}}, "data_format": {"s": "TkhXQw=="}, "use_cudnn_on_gpu": {"b": true}, "padding": {"s": "U0FNRQ=="}, "T": {"type": "DT_FLOAT"}, "explicit_paddings": {"list": {}}}}, {"name": "PartitionedCall/model_1/tf.math.add_9/Add", "op": "AddV2", "input": ["PartitionedCall/model_1/tf.nn.convolution_7/convolution", "8055"], "attr": {"T": {"type": "DT_FLOAT"}}}, {"name": "PartitionedCall/model_1/tf.math.sigmoid_7/Sigmoid", "op": "Sigmoid", "input": ["PartitionedCall/model_1/tf.math.add_9/Add"], "attr": {"T": {"type": "DT_FLOAT"}}}, {"name": "PartitionedCall/model_1/tf.math.multiply_24/Mul", "op": "Mul", "input": ["PartitionedCall/model_1/tf.math.add_9/Add", "PartitionedCall/model_1/tf.math.sigmoid_7/Sigmoid"], "attr": {"T": {"type": "DT_FLOAT"}}}, {"name": "PartitionedCall/model_1/tf.strided_slice_2/StridedSlice", "op": "StridedSlice", "input": ["PartitionedCall/model_1/tf.math.multiply_24/Mul", "8077", "8079", "PartitionedCall/model_1/tf.strided_slice_2/ones_like"], "attr": {"end_mask": {"i": "7"}, "Index": {"type": "DT_INT64"}, "T": {"type": "DT_FLOAT"}, "ellipsis_mask": {"i": "0"}, "new_axis_mask": {"i": "0"}, "shrink_axis_mask": {"i": "0"}, "begin_mask": {"i": "15"}}}, {"name": "PartitionedCall/model_1/tf.strided_slice_3/StridedSlice", "op": "StridedSlice", "input": ["PartitionedCall/model_1/tf.math.multiply_24/Mul", "8057", "8059", "PartitionedCall/model_1/tf.strided_slice_3/ones_like"], "attr": {"begin_mask": {"i": "7"}, "end_mask": {"i": "7"}, "Index": {"type": "DT_INT64"}, "T": {"type": "DT_FLOAT"}, "ellipsis_mask": {"i": "0"}, "new_axis_mask": {"i": "0"}, "shrink_axis_mask": {"i": "0"}}}, {"name": "PartitionedCall/model_1/tf.nn.convolution_8/convolution", "op": "Conv2D", "input": ["PartitionedCall/model_1/tf.strided_slice_3/StridedSlice", "8061"], "device": "/device:CPU:0", "attr": {"explicit_paddings": {"list": {}}, "dilations": {"list": {"i": ["1", "1", "1", "1"]}}, "strides": {"list": {"i": ["1", "1", "1", "1"]}}, "data_format": {"s": "TkhXQw=="}, "padding": {"s": "U0FNRQ=="}, "use_cudnn_on_gpu": {"b": true}, "T": {"type": "DT_FLOAT"}}}, {"name": "PartitionedCall/model_1/tf.math.add_10/Add", "op": "AddV2", "input": ["PartitionedCall/model_1/tf.nn.convolution_8/convolution", "8063"], "attr": {"T": {"type": "DT_FLOAT"}}}, {"name": "PartitionedCall/model_1/tf.math.sigmoid_8/Sigmoid", "op": "Sigmoid", "input": ["PartitionedCall/model_1/tf.math.add_10/Add"], "attr": {"T": {"type": "DT_FLOAT"}}}, {"name": "PartitionedCall/model_1/tf.math.multiply_27/Mul", "op": "Mul", "input": ["PartitionedCall/model_1/tf.math.add_10/Add", "PartitionedCall/model_1/tf.math.sigmoid_8/Sigmoid"], "attr": {"T": {"type": "DT_FLOAT"}}}, {"name": "PartitionedCall/model_1/tf.nn.convolution_9/convolution", "op": "Conv2D", "input": ["PartitionedCall/model_1/tf.math.multiply_27/Mul", "8065"], "device": "/device:CPU:0", "attr": {"explicit_paddings": {"list": {}}, "padding": {"s": "U0FNRQ=="}, "data_format": {"s": "TkhXQw=="}, "use_cudnn_on_gpu": {"b": true}, "dilations": {"list": {"i": ["1", "1", "1", "1"]}}, "strides": {"list": {"i": ["1", "1", "1", "1"]}}, "T": {"type": "DT_FLOAT"}}}, {"name": "PartitionedCall/model_1/tf.math.add_11/Add", "op": "AddV2", "input": ["PartitionedCall/model_1/tf.nn.convolution_9/convolution", "8067"], "attr": {"T": {"type": "DT_FLOAT"}}}, {"name": "PartitionedCall/model_1/tf.math.sigmoid_9/Sigmoid", "op": "Sigmoid", "input": ["PartitionedCall/model_1/tf.math.add_11/Add"], "attr": {"T": {"type": "DT_FLOAT"}}}, {"name": "PartitionedCall/model_1/tf.math.multiply_30/Mul", "op": "Mul", "input": ["PartitionedCall/model_1/tf.math.add_11/Add", "PartitionedCall/model_1/tf.math.sigmoid_9/Sigmoid"], "attr": {"T": {"type": "DT_FLOAT"}}}, {"name": "PartitionedCall/model_1/tf.math.add_13/Add", "op": "AddV2", "input": ["PartitionedCall/model_1/tf.strided_slice_3/StridedSlice", "PartitionedCall/model_1/tf.math.multiply_30/Mul"], "attr": {"T": {"type": "DT_FLOAT"}}}, {"name": "PartitionedCall/model_1/tf.nn.convolution_10/convolution", "op": "Conv2D", "input": ["PartitionedCall/model_1/tf.math.add_13/Add", "8069"], "device": "/device:CPU:0", "attr": {"explicit_paddings": {"list": {}}, "padding": {"s": "U0FNRQ=="}, "T": {"type": "DT_FLOAT"}, "dilations": {"list": {"i": ["1", "1", "1", "1"]}}, "strides": {"list": {"i": ["1", "1", "1", "1"]}}, "use_cudnn_on_gpu": {"b": true}, "data_format": {"s": "TkhXQw=="}}}, {"name": "PartitionedCall/model_1/tf.math.add_14/Add", "op": "AddV2", "input": ["PartitionedCall/model_1/tf.nn.convolution_10/convolution", "8071"], "attr": {"T": {"type": "DT_FLOAT"}}}, {"name": "PartitionedCall/model_1/tf.math.sigmoid_10/Sigmoid", "op": "Sigmoid", "input": ["PartitionedCall/model_1/tf.math.add_14/Add"], "attr": {"T": {"type": "DT_FLOAT"}}}, {"name": "PartitionedCall/model_1/tf.math.multiply_34/Mul", "op": "Mul", "input": ["PartitionedCall/model_1/tf.math.add_14/Add", "PartitionedCall/model_1/tf.math.sigmoid_10/Sigmoid"], "attr": {"T": {"type": "DT_FLOAT"}}}, {"name": "PartitionedCall/model_1/tf.nn.convolution_11/convolution", "op": "Conv2D", "input": ["PartitionedCall/model_1/tf.math.multiply_34/Mul", "8073"], "device": "/device:CPU:0", "attr": {"use_cudnn_on_gpu": {"b": true}, "dilations": {"list": {"i": ["1", "1", "1", "1"]}}, "strides": {"list": {"i": ["1", "1", "1", "1"]}}, "padding": {"s": "U0FNRQ=="}, "explicit_paddings": {"list": {}}, "data_format": {"s": "TkhXQw=="}, "T": {"type": "DT_FLOAT"}}}, {"name": "PartitionedCall/model_1/tf.math.add_15/Add", "op": "AddV2", "input": ["PartitionedCall/model_1/tf.nn.convolution_11/convolution", "8075"], "attr": {"T": {"type": "DT_FLOAT"}}}, {"name": "PartitionedCall/model_1/tf.math.sigmoid_11/Sigmoid", "op": "Sigmoid", "input": ["PartitionedCall/model_1/tf.math.add_15/Add"], "attr": {"T": {"type": "DT_FLOAT"}}}, {"name": "PartitionedCall/model_1/tf.math.multiply_37/Mul", "op": "Mul", "input": ["PartitionedCall/model_1/tf.math.add_15/Add", "PartitionedCall/model_1/tf.math.sigmoid_11/Sigmoid"], "attr": {"T": {"type": "DT_FLOAT"}}}, {"name": "PartitionedCall/model_1/tf.math.add_17/Add", "op": "AddV2", "input": ["PartitionedCall/model_1/tf.math.add_13/Add", "PartitionedCall/model_1/tf.math.multiply_37/Mul"], "attr": {"T": {"type": "DT_FLOAT"}}}, {"name": "PartitionedCall/model_1/tf.concat_1/concat", "op": "ConcatV2", "input": ["PartitionedCall/model_1/tf.strided_slice_2/StridedSlice", "PartitionedCall/model_1/tf.strided_slice_3/StridedSlice", "PartitionedCall/model_1/tf.math.add_13/Add", "PartitionedCall/model_1/tf.math.add_17/Add", "PartitionedCall/model_1/tf.concat_1/concat/axis"], "attr": {"N": {"i": "4"}, "T": {"type": "DT_FLOAT"}, "Tidx": {"type": "DT_INT32"}}}, {"name": "PartitionedCall/model_1/tf.nn.convolution_12/convolution", "op": "Conv2D", "input": ["PartitionedCall/model_1/tf.concat_1/concat", "8081"], "device": "/device:CPU:0", "attr": {"padding": {"s": "U0FNRQ=="}, "T": {"type": "DT_FLOAT"}, "explicit_paddings": {"list": {}}, "data_format": {"s": "TkhXQw=="}, "use_cudnn_on_gpu": {"b": true}, "dilations": {"list": {"i": ["1", "1", "1", "1"]}}, "strides": {"list": {"i": ["1", "1", "1", "1"]}}}}, {"name": "PartitionedCall/model_1/tf.math.add_18/Add", "op": "AddV2", "input": ["PartitionedCall/model_1/tf.nn.convolution_12/convolution", "8083"], "attr": {"T": {"type": "DT_FLOAT"}}}, {"name": "PartitionedCall/model_1/tf.math.sigmoid_12/Sigmoid", "op": "Sigmoid", "input": ["PartitionedCall/model_1/tf.math.add_18/Add"], "attr": {"T": {"type": "DT_FLOAT"}}}, {"name": "PartitionedCall/model_1/tf.math.multiply_41/Mul", "op": "Mul", "input": ["PartitionedCall/model_1/tf.math.add_18/Add", "PartitionedCall/model_1/tf.math.sigmoid_12/Sigmoid"], "attr": {"T": {"type": "DT_FLOAT"}}}, {"name": "PartitionedCall/model_1/tf.compat.v1.pad_3/Pad", "op": "Pad", "input": ["PartitionedCall/model_1/tf.math.multiply_41/Mul", "8085"], "attr": {"Tpaddings": {"type": "DT_INT32"}, "T": {"type": "DT_FLOAT"}}}, {"name": "PartitionedCall/model_1/tf.nn.convolution_13/convolution", "op": "Conv2D", "input": ["PartitionedCall/model_1/tf.compat.v1.pad_3/Pad", "8087"], "device": "/device:CPU:0", "attr": {"dilations": {"list": {"i": ["1", "1", "1", "1"]}}, "padding": {"s": "VkFMSUQ="}, "strides": {"list": {"i": ["1", "2", "2", "1"]}}, "explicit_paddings": {"list": {}}, "T": {"type": "DT_FLOAT"}, "data_format": {"s": "TkhXQw=="}, "use_cudnn_on_gpu": {"b": true}}}, {"name": "PartitionedCall/model_1/tf.math.add_19/Add", "op": "AddV2", "input": ["PartitionedCall/model_1/tf.nn.convolution_13/convolution", "8089"], "attr": {"T": {"type": "DT_FLOAT"}}}, {"name": "PartitionedCall/model_1/tf.math.sigmoid_13/Sigmoid", "op": "Sigmoid", "input": ["PartitionedCall/model_1/tf.math.add_19/Add"], "attr": {"T": {"type": "DT_FLOAT"}}}, {"name": "PartitionedCall/model_1/tf.math.multiply_44/Mul", "op": "Mul", "input": ["PartitionedCall/model_1/tf.math.add_19/Add", "PartitionedCall/model_1/tf.math.sigmoid_13/Sigmoid"], "attr": {"T": {"type": "DT_FLOAT"}}}, {"name": "PartitionedCall/model_1/tf.nn.convolution_14/convolution", "op": "Conv2D", "input": ["PartitionedCall/model_1/tf.math.multiply_44/Mul", "8091"], "device": "/device:CPU:0", "attr": {"dilations": {"list": {"i": ["1", "1", "1", "1"]}}, "explicit_paddings": {"list": {}}, "strides": {"list": {"i": ["1", "1", "1", "1"]}}, "data_format": {"s": "TkhXQw=="}, "use_cudnn_on_gpu": {"b": true}, "T": {"type": "DT_FLOAT"}, "padding": {"s": "U0FNRQ=="}}}, {"name": "PartitionedCall/model_1/tf.math.add_20/Add", "op": "AddV2", "input": ["PartitionedCall/model_1/tf.nn.convolution_14/convolution", "8093"], "attr": {"T": {"type": "DT_FLOAT"}}}, {"name": "PartitionedCall/model_1/tf.math.sigmoid_14/Sigmoid", "op": "Sigmoid", "input": ["PartitionedCall/model_1/tf.math.add_20/Add"], "attr": {"T": {"type": "DT_FLOAT"}}}, {"name": "PartitionedCall/model_1/tf.math.multiply_47/Mul", "op": "Mul", "input": ["PartitionedCall/model_1/tf.math.add_20/Add", "PartitionedCall/model_1/tf.math.sigmoid_14/Sigmoid"], "attr": {"T": {"type": "DT_FLOAT"}}}, {"name": "PartitionedCall/model_1/tf.strided_slice_4/StridedSlice", "op": "StridedSlice", "input": ["PartitionedCall/model_1/tf.math.multiply_47/Mul", "8115", "8117", "PartitionedCall/model_1/tf.strided_slice_4/ones_like"], "attr": {"Index": {"type": "DT_INT64"}, "shrink_axis_mask": {"i": "0"}, "ellipsis_mask": {"i": "0"}, "T": {"type": "DT_FLOAT"}, "end_mask": {"i": "7"}, "begin_mask": {"i": "15"}, "new_axis_mask": {"i": "0"}}}, {"name": "PartitionedCall/model_1/tf.strided_slice_5/StridedSlice", "op": "StridedSlice", "input": ["PartitionedCall/model_1/tf.math.multiply_47/Mul", "8095", "8097", "PartitionedCall/model_1/tf.strided_slice_5/ones_like"], "attr": {"shrink_axis_mask": {"i": "0"}, "new_axis_mask": {"i": "0"}, "T": {"type": "DT_FLOAT"}, "ellipsis_mask": {"i": "0"}, "end_mask": {"i": "7"}, "Index": {"type": "DT_INT64"}, "begin_mask": {"i": "7"}}}, {"name": "PartitionedCall/model_1/tf.nn.convolution_15/convolution", "op": "Conv2D", "input": ["PartitionedCall/model_1/tf.strided_slice_5/StridedSlice", "8099"], "device": "/device:CPU:0", "attr": {"T": {"type": "DT_FLOAT"}, "data_format": {"s": "TkhXQw=="}, "strides": {"list": {"i": ["1", "1", "1", "1"]}}, "explicit_paddings": {"list": {}}, "padding": {"s": "U0FNRQ=="}, "use_cudnn_on_gpu": {"b": true}, "dilations": {"list": {"i": ["1", "1", "1", "1"]}}}}, {"name": "PartitionedCall/model_1/tf.math.add_21/Add", "op": "AddV2", "input": ["PartitionedCall/model_1/tf.nn.convolution_15/convolution", "8101"], "attr": {"T": {"type": "DT_FLOAT"}}}, {"name": "PartitionedCall/model_1/tf.math.sigmoid_15/Sigmoid", "op": "Sigmoid", "input": ["PartitionedCall/model_1/tf.math.add_21/Add"], "attr": {"T": {"type": "DT_FLOAT"}}}, {"name": "PartitionedCall/model_1/tf.math.multiply_50/Mul", "op": "Mul", "input": ["PartitionedCall/model_1/tf.math.add_21/Add", "PartitionedCall/model_1/tf.math.sigmoid_15/Sigmoid"], "attr": {"T": {"type": "DT_FLOAT"}}}, {"name": "PartitionedCall/model_1/tf.nn.convolution_16/convolution", "op": "Conv2D", "input": ["PartitionedCall/model_1/tf.math.multiply_50/Mul", "8103"], "device": "/device:CPU:0", "attr": {"use_cudnn_on_gpu": {"b": true}, "strides": {"list": {"i": ["1", "1", "1", "1"]}}, "dilations": {"list": {"i": ["1", "1", "1", "1"]}}, "explicit_paddings": {"list": {}}, "T": {"type": "DT_FLOAT"}, "padding": {"s": "U0FNRQ=="}, "data_format": {"s": "TkhXQw=="}}}, {"name": "PartitionedCall/model_1/tf.math.add_22/Add", "op": "AddV2", "input": ["PartitionedCall/model_1/tf.nn.convolution_16/convolution", "8105"], "attr": {"T": {"type": "DT_FLOAT"}}}, {"name": "PartitionedCall/model_1/tf.math.sigmoid_16/Sigmoid", "op": "Sigmoid", "input": ["PartitionedCall/model_1/tf.math.add_22/Add"], "attr": {"T": {"type": "DT_FLOAT"}}}, {"name": "PartitionedCall/model_1/tf.math.multiply_53/Mul", "op": "Mul", "input": ["PartitionedCall/model_1/tf.math.add_22/Add", "PartitionedCall/model_1/tf.math.sigmoid_16/Sigmoid"], "attr": {"T": {"type": "DT_FLOAT"}}}, {"name": "PartitionedCall/model_1/tf.math.add_24/Add", "op": "AddV2", "input": ["PartitionedCall/model_1/tf.strided_slice_5/StridedSlice", "PartitionedCall/model_1/tf.math.multiply_53/Mul"], "attr": {"T": {"type": "DT_FLOAT"}}}, {"name": "PartitionedCall/model_1/tf.nn.convolution_17/convolution", "op": "Conv2D", "input": ["PartitionedCall/model_1/tf.math.add_24/Add", "8107"], "device": "/device:CPU:0", "attr": {"data_format": {"s": "TkhXQw=="}, "padding": {"s": "U0FNRQ=="}, "use_cudnn_on_gpu": {"b": true}, "dilations": {"list": {"i": ["1", "1", "1", "1"]}}, "T": {"type": "DT_FLOAT"}, "strides": {"list": {"i": ["1", "1", "1", "1"]}}, "explicit_paddings": {"list": {}}}}, {"name": "PartitionedCall/model_1/tf.math.add_25/Add", "op": "AddV2", "input": ["PartitionedCall/model_1/tf.nn.convolution_17/convolution", "8109"], "attr": {"T": {"type": "DT_FLOAT"}}}, {"name": "PartitionedCall/model_1/tf.math.sigmoid_17/Sigmoid", "op": "Sigmoid", "input": ["PartitionedCall/model_1/tf.math.add_25/Add"], "attr": {"T": {"type": "DT_FLOAT"}}}, {"name": "PartitionedCall/model_1/tf.math.multiply_57/Mul", "op": "Mul", "input": ["PartitionedCall/model_1/tf.math.add_25/Add", "PartitionedCall/model_1/tf.math.sigmoid_17/Sigmoid"], "attr": {"T": {"type": "DT_FLOAT"}}}, {"name": "PartitionedCall/model_1/tf.nn.convolution_18/convolution", "op": "Conv2D", "input": ["PartitionedCall/model_1/tf.math.multiply_57/Mul", "8111"], "device": "/device:CPU:0", "attr": {"explicit_paddings": {"list": {}}, "padding": {"s": "U0FNRQ=="}, "T": {"type": "DT_FLOAT"}, "use_cudnn_on_gpu": {"b": true}, "data_format": {"s": "TkhXQw=="}, "strides": {"list": {"i": ["1", "1", "1", "1"]}}, "dilations": {"list": {"i": ["1", "1", "1", "1"]}}}}, {"name": "PartitionedCall/model_1/tf.math.add_26/Add", "op": "AddV2", "input": ["PartitionedCall/model_1/tf.nn.convolution_18/convolution", "8113"], "attr": {"T": {"type": "DT_FLOAT"}}}, {"name": "PartitionedCall/model_1/tf.math.sigmoid_18/Sigmoid", "op": "Sigmoid", "input": ["PartitionedCall/model_1/tf.math.add_26/Add"], "attr": {"T": {"type": "DT_FLOAT"}}}, {"name": "PartitionedCall/model_1/tf.math.multiply_60/Mul", "op": "Mul", "input": ["PartitionedCall/model_1/tf.math.add_26/Add", "PartitionedCall/model_1/tf.math.sigmoid_18/Sigmoid"], "attr": {"T": {"type": "DT_FLOAT"}}}, {"name": "PartitionedCall/model_1/tf.math.add_28/Add", "op": "AddV2", "input": ["PartitionedCall/model_1/tf.math.add_24/Add", "PartitionedCall/model_1/tf.math.multiply_60/Mul"], "attr": {"T": {"type": "DT_FLOAT"}}}, {"name": "PartitionedCall/model_1/tf.concat_2/concat", "op": "ConcatV2", "input": ["PartitionedCall/model_1/tf.strided_slice_4/StridedSlice", "PartitionedCall/model_1/tf.strided_slice_5/StridedSlice", "PartitionedCall/model_1/tf.math.add_24/Add", "PartitionedCall/model_1/tf.math.add_28/Add", "PartitionedCall/model_1/tf.concat_2/concat/axis"], "attr": {"T": {"type": "DT_FLOAT"}, "N": {"i": "4"}, "Tidx": {"type": "DT_INT32"}}}, {"name": "PartitionedCall/model_1/tf.nn.convolution_19/convolution", "op": "Conv2D", "input": ["PartitionedCall/model_1/tf.concat_2/concat", "8119"], "device": "/device:CPU:0", "attr": {"explicit_paddings": {"list": {}}, "T": {"type": "DT_FLOAT"}, "data_format": {"s": "TkhXQw=="}, "strides": {"list": {"i": ["1", "1", "1", "1"]}}, "use_cudnn_on_gpu": {"b": true}, "dilations": {"list": {"i": ["1", "1", "1", "1"]}}, "padding": {"s": "U0FNRQ=="}}}, {"name": "PartitionedCall/model_1/tf.math.add_29/Add", "op": "AddV2", "input": ["PartitionedCall/model_1/tf.nn.convolution_19/convolution", "8121"], "attr": {"T": {"type": "DT_FLOAT"}}}, {"name": "PartitionedCall/model_1/tf.math.sigmoid_19/Sigmoid", "op": "Sigmoid", "input": ["PartitionedCall/model_1/tf.math.add_29/Add"], "attr": {"T": {"type": "DT_FLOAT"}}}, {"name": "PartitionedCall/model_1/tf.math.multiply_64/Mul", "op": "Mul", "input": ["PartitionedCall/model_1/tf.math.add_29/Add", "PartitionedCall/model_1/tf.math.sigmoid_19/Sigmoid"], "attr": {"T": {"type": "DT_FLOAT"}}}, {"name": "PartitionedCall/model_1/tf.compat.v1.pad_4/Pad", "op": "Pad", "input": ["PartitionedCall/model_1/tf.math.multiply_64/Mul", "8123"], "attr": {"Tpaddings": {"type": "DT_INT32"}, "T": {"type": "DT_FLOAT"}}}, {"name": "PartitionedCall/model_1/tf.nn.convolution_20/convolution", "op": "Conv2D", "input": ["PartitionedCall/model_1/tf.compat.v1.pad_4/Pad", "8125"], "device": "/device:CPU:0", "attr": {"explicit_paddings": {"list": {}}, "T": {"type": "DT_FLOAT"}, "padding": {"s": "VkFMSUQ="}, "data_format": {"s": "TkhXQw=="}, "use_cudnn_on_gpu": {"b": true}, "strides": {"list": {"i": ["1", "2", "2", "1"]}}, "dilations": {"list": {"i": ["1", "1", "1", "1"]}}}}, {"name": "PartitionedCall/model_1/tf.math.add_30/Add", "op": "AddV2", "input": ["PartitionedCall/model_1/tf.nn.convolution_20/convolution", "8127"], "attr": {"T": {"type": "DT_FLOAT"}}}, {"name": "PartitionedCall/model_1/tf.math.sigmoid_20/Sigmoid", "op": "Sigmoid", "input": ["PartitionedCall/model_1/tf.math.add_30/Add"], "attr": {"T": {"type": "DT_FLOAT"}}}, {"name": "PartitionedCall/model_1/tf.math.multiply_67/Mul", "op": "Mul", "input": ["PartitionedCall/model_1/tf.math.add_30/Add", "PartitionedCall/model_1/tf.math.sigmoid_20/Sigmoid"], "attr": {"T": {"type": "DT_FLOAT"}}}, {"name": "PartitionedCall/model_1/tf.nn.convolution_21/convolution", "op": "Conv2D", "input": ["PartitionedCall/model_1/tf.math.multiply_67/Mul", "8129"], "device": "/device:CPU:0", "attr": {"strides": {"list": {"i": ["1", "1", "1", "1"]}}, "explicit_paddings": {"list": {}}, "data_format": {"s": "TkhXQw=="}, "T": {"type": "DT_FLOAT"}, "use_cudnn_on_gpu": {"b": true}, "padding": {"s": "U0FNRQ=="}, "dilations": {"list": {"i": ["1", "1", "1", "1"]}}}}, {"name": "PartitionedCall/model_1/tf.math.add_31/Add", "op": "AddV2", "input": ["PartitionedCall/model_1/tf.nn.convolution_21/convolution", "8131"], "attr": {"T": {"type": "DT_FLOAT"}}}, {"name": "PartitionedCall/model_1/tf.math.sigmoid_21/Sigmoid", "op": "Sigmoid", "input": ["PartitionedCall/model_1/tf.math.add_31/Add"], "attr": {"T": {"type": "DT_FLOAT"}}}, {"name": "PartitionedCall/model_1/tf.math.multiply_70/Mul", "op": "Mul", "input": ["PartitionedCall/model_1/tf.math.add_31/Add", "PartitionedCall/model_1/tf.math.sigmoid_21/Sigmoid"], "attr": {"T": {"type": "DT_FLOAT"}}}, {"name": "PartitionedCall/model_1/tf.strided_slice_6/StridedSlice", "op": "StridedSlice", "input": ["PartitionedCall/model_1/tf.math.multiply_70/Mul", "8145", "8147", "PartitionedCall/model_1/tf.strided_slice_6/ones_like"], "attr": {"begin_mask": {"i": "15"}, "end_mask": {"i": "7"}, "ellipsis_mask": {"i": "0"}, "T": {"type": "DT_FLOAT"}, "Index": {"type": "DT_INT64"}, "shrink_axis_mask": {"i": "0"}, "new_axis_mask": {"i": "0"}}}, {"name": "PartitionedCall/model_1/tf.strided_slice_7/StridedSlice", "op": "StridedSlice", "input": ["PartitionedCall/model_1/tf.math.multiply_70/Mul", "8133", "8135", "PartitionedCall/model_1/tf.strided_slice_7/ones_like"], "attr": {"shrink_axis_mask": {"i": "0"}, "new_axis_mask": {"i": "0"}, "Index": {"type": "DT_INT64"}, "ellipsis_mask": {"i": "0"}, "T": {"type": "DT_FLOAT"}, "end_mask": {"i": "7"}, "begin_mask": {"i": "7"}}}, {"name": "PartitionedCall/model_1/tf.nn.convolution_22/convolution", "op": "Conv2D", "input": ["PartitionedCall/model_1/tf.strided_slice_7/StridedSlice", "8137"], "device": "/device:CPU:0", "attr": {"T": {"type": "DT_FLOAT"}, "data_format": {"s": "TkhXQw=="}, "explicit_paddings": {"list": {}}, "strides": {"list": {"i": ["1", "1", "1", "1"]}}, "padding": {"s": "U0FNRQ=="}, "use_cudnn_on_gpu": {"b": true}, "dilations": {"list": {"i": ["1", "1", "1", "1"]}}}}, {"name": "PartitionedCall/model_1/tf.math.add_32/Add", "op": "AddV2", "input": ["PartitionedCall/model_1/tf.nn.convolution_22/convolution", "8139"], "attr": {"T": {"type": "DT_FLOAT"}}}, {"name": "PartitionedCall/model_1/tf.math.sigmoid_22/Sigmoid", "op": "Sigmoid", "input": ["PartitionedCall/model_1/tf.math.add_32/Add"], "attr": {"T": {"type": "DT_FLOAT"}}}, {"name": "PartitionedCall/model_1/tf.math.multiply_73/Mul", "op": "Mul", "input": ["PartitionedCall/model_1/tf.math.add_32/Add", "PartitionedCall/model_1/tf.math.sigmoid_22/Sigmoid"], "attr": {"T": {"type": "DT_FLOAT"}}}, {"name": "PartitionedCall/model_1/tf.nn.convolution_23/convolution", "op": "Conv2D", "input": ["PartitionedCall/model_1/tf.math.multiply_73/Mul", "8141"], "device": "/device:CPU:0", "attr": {"data_format": {"s": "TkhXQw=="}, "use_cudnn_on_gpu": {"b": true}, "padding": {"s": "U0FNRQ=="}, "dilations": {"list": {"i": ["1", "1", "1", "1"]}}, "strides": {"list": {"i": ["1", "1", "1", "1"]}}, "explicit_paddings": {"list": {}}, "T": {"type": "DT_FLOAT"}}}, {"name": "PartitionedCall/model_1/tf.math.add_33/Add", "op": "AddV2", "input": ["PartitionedCall/model_1/tf.nn.convolution_23/convolution", "8143"], "attr": {"T": {"type": "DT_FLOAT"}}}, {"name": "PartitionedCall/model_1/tf.math.sigmoid_23/Sigmoid", "op": "Sigmoid", "input": ["PartitionedCall/model_1/tf.math.add_33/Add"], "attr": {"T": {"type": "DT_FLOAT"}}}, {"name": "PartitionedCall/model_1/tf.math.multiply_76/Mul", "op": "Mul", "input": ["PartitionedCall/model_1/tf.math.add_33/Add", "PartitionedCall/model_1/tf.math.sigmoid_23/Sigmoid"], "attr": {"T": {"type": "DT_FLOAT"}}}, {"name": "PartitionedCall/model_1/tf.math.add_35/Add", "op": "AddV2", "input": ["PartitionedCall/model_1/tf.strided_slice_7/StridedSlice", "PartitionedCall/model_1/tf.math.multiply_76/Mul"], "attr": {"T": {"type": "DT_FLOAT"}}}, {"name": "PartitionedCall/model_1/tf.concat_3/concat", "op": "ConcatV2", "input": ["PartitionedCall/model_1/tf.strided_slice_6/StridedSlice", "PartitionedCall/model_1/tf.strided_slice_7/StridedSlice", "PartitionedCall/model_1/tf.math.add_35/Add", "PartitionedCall/model_1/tf.concat_3/concat/axis"], "attr": {"N": {"i": "3"}, "T": {"type": "DT_FLOAT"}, "Tidx": {"type": "DT_INT32"}}}, {"name": "PartitionedCall/model_1/tf.nn.convolution_24/convolution", "op": "Conv2D", "input": ["PartitionedCall/model_1/tf.concat_3/concat", "8149"], "device": "/device:CPU:0", "attr": {"strides": {"list": {"i": ["1", "1", "1", "1"]}}, "explicit_paddings": {"list": {}}, "data_format": {"s": "TkhXQw=="}, "padding": {"s": "U0FNRQ=="}, "use_cudnn_on_gpu": {"b": true}, "T": {"type": "DT_FLOAT"}, "dilations": {"list": {"i": ["1", "1", "1", "1"]}}}}, {"name": "PartitionedCall/model_1/tf.math.add_36/Add", "op": "AddV2", "input": ["PartitionedCall/model_1/tf.nn.convolution_24/convolution", "8151"], "attr": {"T": {"type": "DT_FLOAT"}}}, {"name": "PartitionedCall/model_1/tf.math.sigmoid_24/Sigmoid", "op": "Sigmoid", "input": ["PartitionedCall/model_1/tf.math.add_36/Add"], "attr": {"T": {"type": "DT_FLOAT"}}}, {"name": "PartitionedCall/model_1/tf.math.multiply_80/Mul", "op": "Mul", "input": ["PartitionedCall/model_1/tf.math.add_36/Add", "PartitionedCall/model_1/tf.math.sigmoid_24/Sigmoid"], "attr": {"T": {"type": "DT_FLOAT"}}}, {"name": "PartitionedCall/model_1/tf.nn.convolution_25/convolution", "op": "Conv2D", "input": ["PartitionedCall/model_1/tf.math.multiply_80/Mul", "8153"], "device": "/device:CPU:0", "attr": {"strides": {"list": {"i": ["1", "1", "1", "1"]}}, "data_format": {"s": "TkhXQw=="}, "padding": {"s": "U0FNRQ=="}, "use_cudnn_on_gpu": {"b": true}, "dilations": {"list": {"i": ["1", "1", "1", "1"]}}, "T": {"type": "DT_FLOAT"}, "explicit_paddings": {"list": {}}}}, {"name": "PartitionedCall/model_1/tf.math.add_37/Add", "op": "AddV2", "input": ["PartitionedCall/model_1/tf.nn.convolution_25/convolution", "8155"], "attr": {"T": {"type": "DT_FLOAT"}}}, {"name": "PartitionedCall/model_1/tf.math.sigmoid_25/Sigmoid", "op": "Sigmoid", "input": ["PartitionedCall/model_1/tf.math.add_37/Add"], "attr": {"T": {"type": "DT_FLOAT"}}}, {"name": "PartitionedCall/model_1/tf.math.multiply_83/Mul", "op": "Mul", "input": ["PartitionedCall/model_1/tf.math.add_37/Add", "PartitionedCall/model_1/tf.math.sigmoid_25/Sigmoid"], "attr": {"T": {"type": "DT_FLOAT"}}}, {"name": "PartitionedCall/model_1/tf.compat.v1.nn.pool/max_pool", "op": "MaxPool", "input": ["PartitionedCall/model_1/tf.math.multiply_83/Mul"], "attr": {"padding": {"s": "U0FNRQ=="}, "data_format": {"s": "TkhXQw=="}, "strides": {"list": {"i": ["1", "1", "1", "1"]}}, "T": {"type": "DT_FLOAT"}, "ksize": {"list": {"i": ["1", "5", "5", "1"]}}, "explicit_paddings": {"list": {}}}}, {"name": "PartitionedCall/model_1/tf.compat.v1.nn.pool_1/max_pool", "op": "MaxPool", "input": ["PartitionedCall/model_1/tf.compat.v1.nn.pool/max_pool"], "attr": {"T": {"type": "DT_FLOAT"}, "strides": {"list": {"i": ["1", "1", "1", "1"]}}, "data_format": {"s": "TkhXQw=="}, "ksize": {"list": {"i": ["1", "5", "5", "1"]}}, "padding": {"s": "U0FNRQ=="}, "explicit_paddings": {"list": {}}}}, {"name": "PartitionedCall/model_1/tf.compat.v1.nn.pool_2/max_pool", "op": "MaxPool", "input": ["PartitionedCall/model_1/tf.compat.v1.nn.pool_1/max_pool"], "attr": {"T": {"type": "DT_FLOAT"}, "strides": {"list": {"i": ["1", "1", "1", "1"]}}, "ksize": {"list": {"i": ["1", "5", "5", "1"]}}, "explicit_paddings": {"list": {}}, "data_format": {"s": "TkhXQw=="}, "padding": {"s": "U0FNRQ=="}}}, {"name": "PartitionedCall/model_1/tf.concat_4/concat", "op": "ConcatV2", "input": ["PartitionedCall/model_1/tf.math.multiply_83/Mul", "PartitionedCall/model_1/tf.compat.v1.nn.pool/max_pool", "PartitionedCall/model_1/tf.compat.v1.nn.pool_1/max_pool", "PartitionedCall/model_1/tf.compat.v1.nn.pool_2/max_pool", "PartitionedCall/model_1/tf.concat_4/concat/axis"], "attr": {"Tidx": {"type": "DT_INT32"}, "N": {"i": "4"}, "T": {"type": "DT_FLOAT"}}}, {"name": "PartitionedCall/model_1/tf.nn.convolution_26/convolution", "op": "Conv2D", "input": ["PartitionedCall/model_1/tf.concat_4/concat", "8157"], "device": "/device:CPU:0", "attr": {"padding": {"s": "U0FNRQ=="}, "strides": {"list": {"i": ["1", "1", "1", "1"]}}, "explicit_paddings": {"list": {}}, "data_format": {"s": "TkhXQw=="}, "T": {"type": "DT_FLOAT"}, "dilations": {"list": {"i": ["1", "1", "1", "1"]}}, "use_cudnn_on_gpu": {"b": true}}}, {"name": "PartitionedCall/model_1/tf.math.add_38/Add", "op": "AddV2", "input": ["PartitionedCall/model_1/tf.nn.convolution_26/convolution", "8159"], "attr": {"T": {"type": "DT_FLOAT"}}}, {"name": "PartitionedCall/model_1/tf.math.sigmoid_26/Sigmoid", "op": "Sigmoid", "input": ["PartitionedCall/model_1/tf.math.add_38/Add"], "attr": {"T": {"type": "DT_FLOAT"}}}, {"name": "PartitionedCall/model_1/tf.math.multiply_86/Mul", "op": "Mul", "input": ["PartitionedCall/model_1/tf.math.add_38/Add", "PartitionedCall/model_1/tf.math.sigmoid_26/Sigmoid"], "attr": {"T": {"type": "DT_FLOAT"}}}, {"name": "PartitionedCall/model_1/lambda//model.10/Resize", "op": "ResizeNearestNeighbor", "input": ["PartitionedCall/model_1/tf.math.multiply_86/Mul", "PartitionedCall/model_1/lambda//model.10/Resize/size"], "attr": {"T": {"type": "DT_FLOAT"}, "align_corners": {"b": false}, "half_pixel_centers": {"b": false}}}, {"name": "PartitionedCall/model_1/tf.concat_5/concat", "op": "ConcatV2", "input": ["PartitionedCall/model_1/lambda//model.10/Resize", "PartitionedCall/model_1/tf.math.multiply_64/Mul", "PartitionedCall/model_1/tf.concat_5/concat/axis"], "attr": {"Tidx": {"type": "DT_INT32"}, "N": {"i": "2"}, "T": {"type": "DT_FLOAT"}}}, {"name": "PartitionedCall/model_1/tf.nn.convolution_27/convolution", "op": "Conv2D", "input": ["PartitionedCall/model_1/tf.concat_5/concat", "8161"], "device": "/device:CPU:0", "attr": {"dilations": {"list": {"i": ["1", "1", "1", "1"]}}, "use_cudnn_on_gpu": {"b": true}, "padding": {"s": "U0FNRQ=="}, "strides": {"list": {"i": ["1", "1", "1", "1"]}}, "T": {"type": "DT_FLOAT"}, "explicit_paddings": {"list": {}}, "data_format": {"s": "TkhXQw=="}}}, {"name": "PartitionedCall/model_1/tf.math.add_39/Add", "op": "AddV2", "input": ["PartitionedCall/model_1/tf.nn.convolution_27/convolution", "8163"], "attr": {"T": {"type": "DT_FLOAT"}}}, {"name": "PartitionedCall/model_1/tf.math.sigmoid_27/Sigmoid", "op": "Sigmoid", "input": ["PartitionedCall/model_1/tf.math.add_39/Add"], "attr": {"T": {"type": "DT_FLOAT"}}}, {"name": "PartitionedCall/model_1/tf.math.multiply_89/Mul", "op": "Mul", "input": ["PartitionedCall/model_1/tf.math.add_39/Add", "PartitionedCall/model_1/tf.math.sigmoid_27/Sigmoid"], "attr": {"T": {"type": "DT_FLOAT"}}}, {"name": "PartitionedCall/model_1/tf.strided_slice_8/StridedSlice", "op": "StridedSlice", "input": ["PartitionedCall/model_1/tf.math.multiply_89/Mul", "8177", "8179", "PartitionedCall/model_1/tf.strided_slice_8/ones_like"], "attr": {"begin_mask": {"i": "15"}, "T": {"type": "DT_FLOAT"}, "ellipsis_mask": {"i": "0"}, "shrink_axis_mask": {"i": "0"}, "new_axis_mask": {"i": "0"}, "end_mask": {"i": "7"}, "Index": {"type": "DT_INT64"}}}, {"name": "PartitionedCall/model_1/tf.strided_slice_9/StridedSlice", "op": "StridedSlice", "input": ["PartitionedCall/model_1/tf.math.multiply_89/Mul", "8165", "8167", "PartitionedCall/model_1/tf.strided_slice_9/ones_like"], "attr": {"Index": {"type": "DT_INT64"}, "ellipsis_mask": {"i": "0"}, "end_mask": {"i": "7"}, "shrink_axis_mask": {"i": "0"}, "T": {"type": "DT_FLOAT"}, "new_axis_mask": {"i": "0"}, "begin_mask": {"i": "7"}}}, {"name": "PartitionedCall/model_1/tf.nn.convolution_28/convolution", "op": "Conv2D", "input": ["PartitionedCall/model_1/tf.strided_slice_9/StridedSlice", "8169"], "device": "/device:CPU:0", "attr": {"strides": {"list": {"i": ["1", "1", "1", "1"]}}, "dilations": {"list": {"i": ["1", "1", "1", "1"]}}, "T": {"type": "DT_FLOAT"}, "use_cudnn_on_gpu": {"b": true}, "padding": {"s": "U0FNRQ=="}, "data_format": {"s": "TkhXQw=="}, "explicit_paddings": {"list": {}}}}, {"name": "PartitionedCall/model_1/tf.math.add_40/Add", "op": "AddV2", "input": ["PartitionedCall/model_1/tf.nn.convolution_28/convolution", "8171"], "attr": {"T": {"type": "DT_FLOAT"}}}, {"name": "PartitionedCall/model_1/tf.math.sigmoid_28/Sigmoid", "op": "Sigmoid", "input": ["PartitionedCall/model_1/tf.math.add_40/Add"], "attr": {"T": {"type": "DT_FLOAT"}}}, {"name": "PartitionedCall/model_1/tf.math.multiply_92/Mul", "op": "Mul", "input": ["PartitionedCall/model_1/tf.math.add_40/Add", "PartitionedCall/model_1/tf.math.sigmoid_28/Sigmoid"], "attr": {"T": {"type": "DT_FLOAT"}}}, {"name": "PartitionedCall/model_1/tf.nn.convolution_29/convolution", "op": "Conv2D", "input": ["PartitionedCall/model_1/tf.math.multiply_92/Mul", "8173"], "device": "/device:CPU:0", "attr": {"strides": {"list": {"i": ["1", "1", "1", "1"]}}, "dilations": {"list": {"i": ["1", "1", "1", "1"]}}, "T": {"type": "DT_FLOAT"}, "use_cudnn_on_gpu": {"b": true}, "padding": {"s": "U0FNRQ=="}, "explicit_paddings": {"list": {}}, "data_format": {"s": "TkhXQw=="}}}, {"name": "PartitionedCall/model_1/tf.math.add_41/Add", "op": "AddV2", "input": ["PartitionedCall/model_1/tf.nn.convolution_29/convolution", "8175"], "attr": {"T": {"type": "DT_FLOAT"}}}, {"name": "PartitionedCall/model_1/tf.math.sigmoid_29/Sigmoid", "op": "Sigmoid", "input": ["PartitionedCall/model_1/tf.math.add_41/Add"], "attr": {"T": {"type": "DT_FLOAT"}}}, {"name": "PartitionedCall/model_1/tf.math.multiply_95/Mul", "op": "Mul", "input": ["PartitionedCall/model_1/tf.math.add_41/Add", "PartitionedCall/model_1/tf.math.sigmoid_29/Sigmoid"], "attr": {"T": {"type": "DT_FLOAT"}}}, {"name": "PartitionedCall/model_1/tf.concat_6/concat", "op": "ConcatV2", "input": ["PartitionedCall/model_1/tf.strided_slice_8/StridedSlice", "PartitionedCall/model_1/tf.strided_slice_9/StridedSlice", "PartitionedCall/model_1/tf.math.multiply_95/Mul", "PartitionedCall/model_1/tf.concat_6/concat/axis"], "attr": {"N": {"i": "3"}, "Tidx": {"type": "DT_INT32"}, "T": {"type": "DT_FLOAT"}}}, {"name": "PartitionedCall/model_1/tf.nn.convolution_30/convolution", "op": "Conv2D", "input": ["PartitionedCall/model_1/tf.concat_6/concat", "8181"], "device": "/device:CPU:0", "attr": {"T": {"type": "DT_FLOAT"}, "use_cudnn_on_gpu": {"b": true}, "padding": {"s": "U0FNRQ=="}, "explicit_paddings": {"list": {}}, "data_format": {"s": "TkhXQw=="}, "strides": {"list": {"i": ["1", "1", "1", "1"]}}, "dilations": {"list": {"i": ["1", "1", "1", "1"]}}}}, {"name": "PartitionedCall/model_1/tf.math.add_42/Add", "op": "AddV2", "input": ["PartitionedCall/model_1/tf.nn.convolution_30/convolution", "8183"], "attr": {"T": {"type": "DT_FLOAT"}}}, {"name": "PartitionedCall/model_1/tf.math.sigmoid_30/Sigmoid", "op": "Sigmoid", "input": ["PartitionedCall/model_1/tf.math.add_42/Add"], "attr": {"T": {"type": "DT_FLOAT"}}}, {"name": "PartitionedCall/model_1/tf.math.multiply_98/Mul", "op": "Mul", "input": ["PartitionedCall/model_1/tf.math.add_42/Add", "PartitionedCall/model_1/tf.math.sigmoid_30/Sigmoid"], "attr": {"T": {"type": "DT_FLOAT"}}}, {"name": "PartitionedCall/model_1/lambda_1//model.13/Resize", "op": "ResizeNearestNeighbor", "input": ["PartitionedCall/model_1/tf.math.multiply_98/Mul", "PartitionedCall/model_1/lambda_1//model.13/Resize/size"], "attr": {"align_corners": {"b": false}, "half_pixel_centers": {"b": false}, "T": {"type": "DT_FLOAT"}}}, {"name": "PartitionedCall/model_1/tf.concat_7/concat", "op": "ConcatV2", "input": ["PartitionedCall/model_1/lambda_1//model.13/Resize", "PartitionedCall/model_1/tf.math.multiply_41/Mul", "PartitionedCall/model_1/tf.concat_7/concat/axis"], "attr": {"Tidx": {"type": "DT_INT32"}, "N": {"i": "2"}, "T": {"type": "DT_FLOAT"}}}, {"name": "PartitionedCall/model_1/tf.nn.convolution_31/convolution", "op": "Conv2D", "input": ["PartitionedCall/model_1/tf.concat_7/concat", "8185"], "device": "/device:CPU:0", "attr": {"T": {"type": "DT_FLOAT"}, "data_format": {"s": "TkhXQw=="}, "padding": {"s": "U0FNRQ=="}, "explicit_paddings": {"list": {}}, "strides": {"list": {"i": ["1", "1", "1", "1"]}}, "dilations": {"list": {"i": ["1", "1", "1", "1"]}}, "use_cudnn_on_gpu": {"b": true}}}, {"name": "PartitionedCall/model_1/tf.math.add_43/Add", "op": "AddV2", "input": ["PartitionedCall/model_1/tf.nn.convolution_31/convolution", "8187"], "attr": {"T": {"type": "DT_FLOAT"}}}, {"name": "PartitionedCall/model_1/tf.math.sigmoid_31/Sigmoid", "op": "Sigmoid", "input": ["PartitionedCall/model_1/tf.math.add_43/Add"], "attr": {"T": {"type": "DT_FLOAT"}}}, {"name": "PartitionedCall/model_1/tf.math.multiply_101/Mul", "op": "Mul", "input": ["PartitionedCall/model_1/tf.math.add_43/Add", "PartitionedCall/model_1/tf.math.sigmoid_31/Sigmoid"], "attr": {"T": {"type": "DT_FLOAT"}}}, {"name": "PartitionedCall/model_1/tf.strided_slice_10/StridedSlice", "op": "StridedSlice", "input": ["PartitionedCall/model_1/tf.math.multiply_101/Mul", "8201", "8203", "PartitionedCall/model_1/tf.strided_slice_10/ones_like"], "attr": {"T": {"type": "DT_FLOAT"}, "begin_mask": {"i": "15"}, "shrink_axis_mask": {"i": "0"}, "new_axis_mask": {"i": "0"}, "Index": {"type": "DT_INT64"}, "ellipsis_mask": {"i": "0"}, "end_mask": {"i": "7"}}}, {"name": "PartitionedCall/model_1/tf.strided_slice_11/StridedSlice", "op": "StridedSlice", "input": ["PartitionedCall/model_1/tf.math.multiply_101/Mul", "8189", "8191", "PartitionedCall/model_1/tf.strided_slice_11/ones_like"], "attr": {"T": {"type": "DT_FLOAT"}, "new_axis_mask": {"i": "0"}, "ellipsis_mask": {"i": "0"}, "end_mask": {"i": "7"}, "begin_mask": {"i": "7"}, "Index": {"type": "DT_INT64"}, "shrink_axis_mask": {"i": "0"}}}, {"name": "PartitionedCall/model_1/tf.nn.convolution_32/convolution", "op": "Conv2D", "input": ["PartitionedCall/model_1/tf.strided_slice_11/StridedSlice", "8193"], "device": "/device:CPU:0", "attr": {"dilations": {"list": {"i": ["1", "1", "1", "1"]}}, "strides": {"list": {"i": ["1", "1", "1", "1"]}}, "use_cudnn_on_gpu": {"b": true}, "T": {"type": "DT_FLOAT"}, "data_format": {"s": "TkhXQw=="}, "explicit_paddings": {"list": {}}, "padding": {"s": "U0FNRQ=="}}}, {"name": "PartitionedCall/model_1/tf.math.add_44/Add", "op": "AddV2", "input": ["PartitionedCall/model_1/tf.nn.convolution_32/convolution", "8195"], "attr": {"T": {"type": "DT_FLOAT"}}}, {"name": "PartitionedCall/model_1/tf.math.sigmoid_32/Sigmoid", "op": "Sigmoid", "input": ["PartitionedCall/model_1/tf.math.add_44/Add"], "attr": {"T": {"type": "DT_FLOAT"}}}, {"name": "PartitionedCall/model_1/tf.math.multiply_104/Mul", "op": "Mul", "input": ["PartitionedCall/model_1/tf.math.add_44/Add", "PartitionedCall/model_1/tf.math.sigmoid_32/Sigmoid"], "attr": {"T": {"type": "DT_FLOAT"}}}, {"name": "PartitionedCall/model_1/tf.nn.convolution_33/convolution", "op": "Conv2D", "input": ["PartitionedCall/model_1/tf.math.multiply_104/Mul", "8197"], "device": "/device:CPU:0", "attr": {"use_cudnn_on_gpu": {"b": true}, "padding": {"s": "U0FNRQ=="}, "data_format": {"s": "TkhXQw=="}, "explicit_paddings": {"list": {}}, "dilations": {"list": {"i": ["1", "1", "1", "1"]}}, "strides": {"list": {"i": ["1", "1", "1", "1"]}}, "T": {"type": "DT_FLOAT"}}}, {"name": "PartitionedCall/model_1/tf.math.add_45/Add", "op": "AddV2", "input": ["PartitionedCall/model_1/tf.nn.convolution_33/convolution", "8199"], "attr": {"T": {"type": "DT_FLOAT"}}}, {"name": "PartitionedCall/model_1/tf.math.sigmoid_33/Sigmoid", "op": "Sigmoid", "input": ["PartitionedCall/model_1/tf.math.add_45/Add"], "attr": {"T": {"type": "DT_FLOAT"}}}, {"name": "PartitionedCall/model_1/tf.math.multiply_107/Mul", "op": "Mul", "input": ["PartitionedCall/model_1/tf.math.add_45/Add", "PartitionedCall/model_1/tf.math.sigmoid_33/Sigmoid"], "attr": {"T": {"type": "DT_FLOAT"}}}, {"name": "PartitionedCall/model_1/tf.concat_8/concat", "op": "ConcatV2", "input": ["PartitionedCall/model_1/tf.strided_slice_10/StridedSlice", "PartitionedCall/model_1/tf.strided_slice_11/StridedSlice", "PartitionedCall/model_1/tf.math.multiply_107/Mul", "PartitionedCall/model_1/tf.concat_8/concat/axis"], "attr": {"Tidx": {"type": "DT_INT32"}, "N": {"i": "3"}, "T": {"type": "DT_FLOAT"}}}, {"name": "PartitionedCall/model_1/tf.nn.convolution_34/convolution", "op": "Conv2D", "input": ["PartitionedCall/model_1/tf.concat_8/concat", "8205"], "device": "/device:CPU:0", "attr": {"dilations": {"list": {"i": ["1", "1", "1", "1"]}}, "use_cudnn_on_gpu": {"b": true}, "strides": {"list": {"i": ["1", "1", "1", "1"]}}, "T": {"type": "DT_FLOAT"}, "data_format": {"s": "TkhXQw=="}, "explicit_paddings": {"list": {}}, "padding": {"s": "U0FNRQ=="}}}, {"name": "PartitionedCall/model_1/tf.math.add_46/Add", "op": "AddV2", "input": ["PartitionedCall/model_1/tf.nn.convolution_34/convolution", "8207"], "attr": {"T": {"type": "DT_FLOAT"}}}, {"name": "PartitionedCall/model_1/tf.math.sigmoid_34/Sigmoid", "op": "Sigmoid", "input": ["PartitionedCall/model_1/tf.math.add_46/Add"], "attr": {"T": {"type": "DT_FLOAT"}}}, {"name": "PartitionedCall/model_1/tf.math.multiply_110/Mul", "op": "Mul", "input": ["PartitionedCall/model_1/tf.math.add_46/Add", "PartitionedCall/model_1/tf.math.sigmoid_34/Sigmoid"], "attr": {"T": {"type": "DT_FLOAT"}}}, {"name": "PartitionedCall/model_1/tf.nn.convolution_36/convolution", "op": "Conv2D", "input": ["PartitionedCall/model_1/tf.math.multiply_110/Mul", "8279"], "device": "/device:CPU:0", "attr": {"T": {"type": "DT_FLOAT"}, "data_format": {"s": "TkhXQw=="}, "use_cudnn_on_gpu": {"b": true}, "padding": {"s": "U0FNRQ=="}, "strides": {"list": {"i": ["1", "1", "1", "1"]}}, "dilations": {"list": {"i": ["1", "1", "1", "1"]}}, "explicit_paddings": {"list": {}}}}, {"name": "PartitionedCall/model_1/tf.nn.convolution_37/convolution", "op": "Conv2D", "input": ["PartitionedCall/model_1/tf.math.multiply_110/Mul", "8277"], "device": "/device:CPU:0", "attr": {"data_format": {"s": "TkhXQw=="}, "T": {"type": "DT_FLOAT"}, "explicit_paddings": {"list": {}}, "padding": {"s": "U0FNRQ=="}, "dilations": {"list": {"i": ["1", "1", "1", "1"]}}, "use_cudnn_on_gpu": {"b": true}, "strides": {"list": {"i": ["1", "1", "1", "1"]}}}}, {"name": "PartitionedCall/model_1/tf.compat.v1.pad_5/Pad", "op": "Pad", "input": ["PartitionedCall/model_1/tf.math.multiply_110/Mul", "8209"], "attr": {"T": {"type": "DT_FLOAT"}, "Tpaddings": {"type": "DT_INT32"}}}, {"name": "PartitionedCall/model_1/tf.math.add_48/Add", "op": "AddV2", "input": ["PartitionedCall/model_1/tf.nn.convolution_36/convolution", "8291"], "attr": {"T": {"type": "DT_FLOAT"}}}, {"name": "PartitionedCall/model_1/tf.math.add_49/Add", "op": "AddV2", "input": ["PartitionedCall/model_1/tf.nn.convolution_37/convolution", "8289"], "attr": {"T": {"type": "DT_FLOAT"}}}, {"name": "PartitionedCall/model_1/tf.nn.convolution_35/convolution", "op": "Conv2D", "input": ["PartitionedCall/model_1/tf.compat.v1.pad_5/Pad", "8211"], "device": "/device:CPU:0", "attr": {"strides": {"list": {"i": ["1", "2", "2", "1"]}}, "dilations": {"list": {"i": ["1", "1", "1", "1"]}}, "use_cudnn_on_gpu": {"b": true}, "T": {"type": "DT_FLOAT"}, "data_format": {"s": "TkhXQw=="}, "padding": {"s": "VkFMSUQ="}, "explicit_paddings": {"list": {}}}}, {"name": "PartitionedCall/model_1/tf.math.sigmoid_36/Sigmoid", "op": "Sigmoid", "input": ["PartitionedCall/model_1/tf.math.add_48/Add"], "attr": {"T": {"type": "DT_FLOAT"}}}, {"name": "PartitionedCall/model_1/tf.math.sigmoid_37/Sigmoid", "op": "Sigmoid", "input": ["PartitionedCall/model_1/tf.math.add_49/Add"], "attr": {"T": {"type": "DT_FLOAT"}}}, {"name": "PartitionedCall/model_1/tf.math.add_47/Add", "op": "AddV2", "input": ["PartitionedCall/model_1/tf.nn.convolution_35/convolution", "8213"], "attr": {"T": {"type": "DT_FLOAT"}}}, {"name": "PartitionedCall/model_1/tf.math.multiply_116/Mul", "op": "Mul", "input": ["PartitionedCall/model_1/tf.math.add_48/Add", "PartitionedCall/model_1/tf.math.sigmoid_36/Sigmoid"], "attr": {"T": {"type": "DT_FLOAT"}}}, {"name": "PartitionedCall/model_1/tf.math.multiply_119/Mul", "op": "Mul", "input": ["PartitionedCall/model_1/tf.math.add_49/Add", "PartitionedCall/model_1/tf.math.sigmoid_37/Sigmoid"], "attr": {"T": {"type": "DT_FLOAT"}}}, {"name": "PartitionedCall/model_1/tf.math.sigmoid_35/Sigmoid", "op": "Sigmoid", "input": ["PartitionedCall/model_1/tf.math.add_47/Add"], "attr": {"T": {"type": "DT_FLOAT"}}}, {"name": "PartitionedCall/model_1/tf.nn.convolution_38/convolution", "op": "Conv2D", "input": ["PartitionedCall/model_1/tf.math.multiply_116/Mul", "8303"], "device": "/device:CPU:0", "attr": {"explicit_paddings": {"list": {}}, "use_cudnn_on_gpu": {"b": true}, "padding": {"s": "U0FNRQ=="}, "strides": {"list": {"i": ["1", "1", "1", "1"]}}, "dilations": {"list": {"i": ["1", "1", "1", "1"]}}, "T": {"type": "DT_FLOAT"}, "data_format": {"s": "TkhXQw=="}}}, {"name": "PartitionedCall/model_1/tf.nn.convolution_39/convolution", "op": "Conv2D", "input": ["PartitionedCall/model_1/tf.math.multiply_119/Mul", "8301"], "device": "/device:CPU:0", "attr": {"strides": {"list": {"i": ["1", "1", "1", "1"]}}, "padding": {"s": "U0FNRQ=="}, "data_format": {"s": "TkhXQw=="}, "T": {"type": "DT_FLOAT"}, "dilations": {"list": {"i": ["1", "1", "1", "1"]}}, "use_cudnn_on_gpu": {"b": true}, "explicit_paddings": {"list": {}}}}, {"name": "PartitionedCall/model_1/tf.math.multiply_113/Mul", "op": "Mul", "input": ["PartitionedCall/model_1/tf.math.add_47/Add", "PartitionedCall/model_1/tf.math.sigmoid_35/Sigmoid"], "attr": {"T": {"type": "DT_FLOAT"}}}, {"name": "PartitionedCall/model_1/tf.math.add_50/Add", "op": "AddV2", "input": ["PartitionedCall/model_1/tf.nn.convolution_38/convolution", "8315"], "attr": {"T": {"type": "DT_FLOAT"}}}, {"name": "PartitionedCall/model_1/tf.math.add_51/Add", "op": "AddV2", "input": ["PartitionedCall/model_1/tf.nn.convolution_39/convolution", "8313"], "attr": {"T": {"type": "DT_FLOAT"}}}, {"name": "PartitionedCall/model_1/tf.concat_9/concat", "op": "ConcatV2", "input": ["PartitionedCall/model_1/tf.math.multiply_113/Mul", "PartitionedCall/model_1/tf.math.multiply_98/Mul", "PartitionedCall/model_1/tf.concat_9/concat/axis"], "attr": {"Tidx": {"type": "DT_INT32"}, "N": {"i": "2"}, "T": {"type": "DT_FLOAT"}}}, {"name": "PartitionedCall/model_1/tf.math.sigmoid_38/Sigmoid", "op": "Sigmoid", "input": ["PartitionedCall/model_1/tf.math.add_50/Add"], "attr": {"T": {"type": "DT_FLOAT"}}}, {"name": "PartitionedCall/model_1/tf.math.sigmoid_39/Sigmoid", "op": "Sigmoid", "input": ["PartitionedCall/model_1/tf.math.add_51/Add"], "attr": {"T": {"type": "DT_FLOAT"}}}, {"name": "PartitionedCall/model_1/tf.nn.convolution_40/convolution", "op": "Conv2D", "input": ["PartitionedCall/model_1/tf.concat_9/concat", "8215"], "device": "/device:CPU:0", "attr": {"strides": {"list": {"i": ["1", "1", "1", "1"]}}, "explicit_paddings": {"list": {}}, "T": {"type": "DT_FLOAT"}, "data_format": {"s": "TkhXQw=="}, "padding": {"s": "U0FNRQ=="}, "dilations": {"list": {"i": ["1", "1", "1", "1"]}}, "use_cudnn_on_gpu": {"b": true}}}, {"name": "PartitionedCall/model_1/tf.math.multiply_122/Mul", "op": "Mul", "input": ["PartitionedCall/model_1/tf.math.add_50/Add", "PartitionedCall/model_1/tf.math.sigmoid_38/Sigmoid"], "attr": {"T": {"type": "DT_FLOAT"}}}, {"name": "PartitionedCall/model_1/tf.math.multiply_125/Mul", "op": "Mul", "input": ["PartitionedCall/model_1/tf.math.add_51/Add", "PartitionedCall/model_1/tf.math.sigmoid_39/Sigmoid"], "attr": {"T": {"type": "DT_FLOAT"}}}, {"name": "PartitionedCall/model_1/tf.math.add_52/Add", "op": "AddV2", "input": ["PartitionedCall/model_1/tf.nn.convolution_40/convolution", "8217"], "attr": {"T": {"type": "DT_FLOAT"}}}, {"name": "PartitionedCall/model_1/tf.nn.convolution_41/convolution", "op": "Conv2D", "input": ["PartitionedCall/model_1/tf.math.multiply_122/Mul", "8327"], "device": "/device:CPU:0", "attr": {"strides": {"list": {"i": ["1", "1", "1", "1"]}}, "use_cudnn_on_gpu": {"b": true}, "padding": {"s": "U0FNRQ=="}, "explicit_paddings": {"list": {}}, "data_format": {"s": "TkhXQw=="}, "dilations": {"list": {"i": ["1", "1", "1", "1"]}}, "T": {"type": "DT_FLOAT"}}}, {"name": "PartitionedCall/model_1/tf.nn.convolution_42/convolution", "op": "Conv2D", "input": ["PartitionedCall/model_1/tf.math.multiply_125/Mul", "8325"], "device": "/device:CPU:0", "attr": {"padding": {"s": "U0FNRQ=="}, "explicit_paddings": {"list": {}}, "data_format": {"s": "TkhXQw=="}, "T": {"type": "DT_FLOAT"}, "dilations": {"list": {"i": ["1", "1", "1", "1"]}}, "strides": {"list": {"i": ["1", "1", "1", "1"]}}, "use_cudnn_on_gpu": {"b": true}}}, {"name": "PartitionedCall/model_1/tf.math.sigmoid_40/Sigmoid", "op": "Sigmoid", "input": ["PartitionedCall/model_1/tf.math.add_52/Add"], "attr": {"T": {"type": "DT_FLOAT"}}}, {"name": "PartitionedCall/model_1/tf.math.add_53/Add", "op": "AddV2", "input": ["PartitionedCall/model_1/tf.nn.convolution_41/convolution", "8337"], "attr": {"T": {"type": "DT_FLOAT"}}}, {"name": "PartitionedCall/model_1/tf.math.add_54/Add", "op": "AddV2", "input": ["PartitionedCall/model_1/tf.nn.convolution_42/convolution", "8339"], "attr": {"T": {"type": "DT_FLOAT"}}}, {"name": "PartitionedCall/model_1/tf.math.multiply_128/Mul", "op": "Mul", "input": ["PartitionedCall/model_1/tf.math.add_52/Add", "PartitionedCall/model_1/tf.math.sigmoid_40/Sigmoid"], "attr": {"T": {"type": "DT_FLOAT"}}}, {"name": "PartitionedCall/model_1/tf.concat_10/concat", "op": "ConcatV2", "input": ["PartitionedCall/model_1/tf.math.add_53/Add", "PartitionedCall/model_1/tf.math.add_54/Add", "PartitionedCall/model_1/tf.concat_10/concat/axis"], "attr": {"Tidx": {"type": "DT_INT32"}, "N": {"i": "2"}, "T": {"type": "DT_FLOAT"}}}, {"name": "PartitionedCall/model_1/tf.strided_slice_12/StridedSlice", "op": "StridedSlice", "input": ["PartitionedCall/model_1/tf.math.multiply_128/Mul", "8231", "8233", "PartitionedCall/model_1/tf.strided_slice_12/ones_like"], "attr": {"new_axis_mask": {"i": "0"}, "shrink_axis_mask": {"i": "0"}, "ellipsis_mask": {"i": "0"}, "end_mask": {"i": "7"}, "Index": {"type": "DT_INT64"}, "T": {"type": "DT_FLOAT"}, "begin_mask": {"i": "15"}}}, {"name": "PartitionedCall/model_1/tf.strided_slice_13/StridedSlice", "op": "StridedSlice", "input": ["PartitionedCall/model_1/tf.math.multiply_128/Mul", "8219", "8221", "PartitionedCall/model_1/tf.strided_slice_13/ones_like"], "attr": {"T": {"type": "DT_FLOAT"}, "end_mask": {"i": "7"}, "begin_mask": {"i": "7"}, "new_axis_mask": {"i": "0"}, "shrink_axis_mask": {"i": "0"}, "ellipsis_mask": {"i": "0"}, "Index": {"type": "DT_INT64"}}}, {"name": "PartitionedCall/model_1/tf.compat.v1.transpose/transpose", "op": "Transpose", "input": ["PartitionedCall/model_1/tf.concat_10/concat", "PartitionedCall/model_1/tf.compat.v1.transpose/transpose/perm"], "attr": {"T": {"type": "DT_FLOAT"}, "Tperm": {"type": "DT_INT32"}}}, {"name": "PartitionedCall/model_1/tf.nn.convolution_43/convolution", "op": "Conv2D", "input": ["PartitionedCall/model_1/tf.strided_slice_13/StridedSlice", "8223"], "device": "/device:CPU:0", "attr": {"padding": {"s": "U0FNRQ=="}, "dilations": {"list": {"i": ["1", "1", "1", "1"]}}, "data_format": {"s": "TkhXQw=="}, "explicit_paddings": {"list": {}}, "strides": {"list": {"i": ["1", "1", "1", "1"]}}, "T": {"type": "DT_FLOAT"}, "use_cudnn_on_gpu": {"b": true}}}, {"name": "PartitionedCall/model_1/tf.reshape/Reshape", "op": "Reshape", "input": ["PartitionedCall/model_1/tf.compat.v1.transpose/transpose", "PartitionedCall/model_1/tf.reshape/Reshape/shape"], "attr": {"Tshape": {"type": "DT_INT32"}, "T": {"type": "DT_FLOAT"}}}, {"name": "PartitionedCall/model_1/tf.math.add_55/Add", "op": "AddV2", "input": ["PartitionedCall/model_1/tf.nn.convolution_43/convolution", "8225"], "attr": {"T": {"type": "DT_FLOAT"}}}, {"name": "PartitionedCall/model_1/tf.math.sigmoid_41/Sigmoid", "op": "Sigmoid", "input": ["PartitionedCall/model_1/tf.math.add_55/Add"], "attr": {"T": {"type": "DT_FLOAT"}}}, {"name": "PartitionedCall/model_1/tf.math.multiply_131/Mul", "op": "Mul", "input": ["PartitionedCall/model_1/tf.math.add_55/Add", "PartitionedCall/model_1/tf.math.sigmoid_41/Sigmoid"], "attr": {"T": {"type": "DT_FLOAT"}}}, {"name": "PartitionedCall/model_1/tf.nn.convolution_44/convolution", "op": "Conv2D", "input": ["PartitionedCall/model_1/tf.math.multiply_131/Mul", "8227"], "device": "/device:CPU:0", "attr": {"padding": {"s": "U0FNRQ=="}, "explicit_paddings": {"list": {}}, "dilations": {"list": {"i": ["1", "1", "1", "1"]}}, "data_format": {"s": "TkhXQw=="}, "T": {"type": "DT_FLOAT"}, "strides": {"list": {"i": ["1", "1", "1", "1"]}}, "use_cudnn_on_gpu": {"b": true}}}, {"name": "PartitionedCall/model_1/tf.math.add_56/Add", "op": "AddV2", "input": ["PartitionedCall/model_1/tf.nn.convolution_44/convolution", "8229"], "attr": {"T": {"type": "DT_FLOAT"}}}, {"name": "PartitionedCall/model_1/tf.math.sigmoid_42/Sigmoid", "op": "Sigmoid", "input": ["PartitionedCall/model_1/tf.math.add_56/Add"], "attr": {"T": {"type": "DT_FLOAT"}}}, {"name": "PartitionedCall/model_1/tf.math.multiply_134/Mul", "op": "Mul", "input": ["PartitionedCall/model_1/tf.math.add_56/Add", "PartitionedCall/model_1/tf.math.sigmoid_42/Sigmoid"], "attr": {"T": {"type": "DT_FLOAT"}}}, {"name": "PartitionedCall/model_1/tf.concat_11/concat", "op": "ConcatV2", "input": ["PartitionedCall/model_1/tf.strided_slice_12/StridedSlice", "PartitionedCall/model_1/tf.strided_slice_13/StridedSlice", "PartitionedCall/model_1/tf.math.multiply_134/Mul", "PartitionedCall/model_1/tf.concat_11/concat/axis"], "attr": {"T": {"type": "DT_FLOAT"}, "Tidx": {"type": "DT_INT32"}, "N": {"i": "3"}}}, {"name": "PartitionedCall/model_1/tf.nn.convolution_45/convolution", "op": "Conv2D", "input": ["PartitionedCall/model_1/tf.concat_11/concat", "8235"], "device": "/device:CPU:0", "attr": {"data_format": {"s": "TkhXQw=="}, "dilations": {"list": {"i": ["1", "1", "1", "1"]}}, "strides": {"list": {"i": ["1", "1", "1", "1"]}}, "use_cudnn_on_gpu": {"b": true}, "T": {"type": "DT_FLOAT"}, "padding": {"s": "U0FNRQ=="}, "explicit_paddings": {"list": {}}}}, {"name": "PartitionedCall/model_1/tf.math.add_57/Add", "op": "AddV2", "input": ["PartitionedCall/model_1/tf.nn.convolution_45/convolution", "8237"], "attr": {"T": {"type": "DT_FLOAT"}}}, {"name": "PartitionedCall/model_1/tf.math.sigmoid_43/Sigmoid", "op": "Sigmoid", "input": ["PartitionedCall/model_1/tf.math.add_57/Add"], "attr": {"T": {"type": "DT_FLOAT"}}}, {"name": "PartitionedCall/model_1/tf.math.multiply_137/Mul", "op": "Mul", "input": ["PartitionedCall/model_1/tf.math.add_57/Add", "PartitionedCall/model_1/tf.math.sigmoid_43/Sigmoid"], "attr": {"T": {"type": "DT_FLOAT"}}}, {"name": "PartitionedCall/model_1/tf.nn.convolution_47/convolution", "op": "Conv2D", "input": ["PartitionedCall/model_1/tf.math.multiply_137/Mul", "8275"], "device": "/device:CPU:0", "attr": {"use_cudnn_on_gpu": {"b": true}, "padding": {"s": "U0FNRQ=="}, "strides": {"list": {"i": ["1", "1", "1", "1"]}}, "T": {"type": "DT_FLOAT"}, "dilations": {"list": {"i": ["1", "1", "1", "1"]}}, "explicit_paddings": {"list": {}}, "data_format": {"s": "TkhXQw=="}}}, {"name": "PartitionedCall/model_1/tf.nn.convolution_48/convolution", "op": "Conv2D", "input": ["PartitionedCall/model_1/tf.math.multiply_137/Mul", "8273"], "device": "/device:CPU:0", "attr": {"data_format": {"s": "TkhXQw=="}, "strides": {"list": {"i": ["1", "1", "1", "1"]}}, "T": {"type": "DT_FLOAT"}, "use_cudnn_on_gpu": {"b": true}, "explicit_paddings": {"list": {}}, "padding": {"s": "U0FNRQ=="}, "dilations": {"list": {"i": ["1", "1", "1", "1"]}}}}, {"name": "PartitionedCall/model_1/tf.compat.v1.pad_6/Pad", "op": "Pad", "input": ["PartitionedCall/model_1/tf.math.multiply_137/Mul", "8239"], "attr": {"Tpaddings": {"type": "DT_INT32"}, "T": {"type": "DT_FLOAT"}}}, {"name": "PartitionedCall/model_1/tf.math.add_59/Add", "op": "AddV2", "input": ["PartitionedCall/model_1/tf.nn.convolution_47/convolution", "8287"], "attr": {"T": {"type": "DT_FLOAT"}}}, {"name": "PartitionedCall/model_1/tf.math.add_60/Add", "op": "AddV2", "input": ["PartitionedCall/model_1/tf.nn.convolution_48/convolution", "8285"], "attr": {"T": {"type": "DT_FLOAT"}}}, {"name": "PartitionedCall/model_1/tf.nn.convolution_46/convolution", "op": "Conv2D", "input": ["PartitionedCall/model_1/tf.compat.v1.pad_6/Pad", "8241"], "device": "/device:CPU:0", "attr": {"padding": {"s": "VkFMSUQ="}, "data_format": {"s": "TkhXQw=="}, "T": {"type": "DT_FLOAT"}, "dilations": {"list": {"i": ["1", "1", "1", "1"]}}, "use_cudnn_on_gpu": {"b": true}, "explicit_paddings": {"list": {}}, "strides": {"list": {"i": ["1", "2", "2", "1"]}}}}, {"name": "PartitionedCall/model_1/tf.math.sigmoid_45/Sigmoid", "op": "Sigmoid", "input": ["PartitionedCall/model_1/tf.math.add_59/Add"], "attr": {"T": {"type": "DT_FLOAT"}}}, {"name": "PartitionedCall/model_1/tf.math.sigmoid_46/Sigmoid", "op": "Sigmoid", "input": ["PartitionedCall/model_1/tf.math.add_60/Add"], "attr": {"T": {"type": "DT_FLOAT"}}}, {"name": "PartitionedCall/model_1/tf.math.add_58/Add", "op": "AddV2", "input": ["PartitionedCall/model_1/tf.nn.convolution_46/convolution", "8243"], "attr": {"T": {"type": "DT_FLOAT"}}}, {"name": "PartitionedCall/model_1/tf.math.multiply_143/Mul", "op": "Mul", "input": ["PartitionedCall/model_1/tf.math.add_59/Add", "PartitionedCall/model_1/tf.math.sigmoid_45/Sigmoid"], "attr": {"T": {"type": "DT_FLOAT"}}}, {"name": "PartitionedCall/model_1/tf.math.multiply_146/Mul", "op": "Mul", "input": ["PartitionedCall/model_1/tf.math.add_60/Add", "PartitionedCall/model_1/tf.math.sigmoid_46/Sigmoid"], "attr": {"T": {"type": "DT_FLOAT"}}}, {"name": "PartitionedCall/model_1/tf.math.sigmoid_44/Sigmoid", "op": "Sigmoid", "input": ["PartitionedCall/model_1/tf.math.add_58/Add"], "attr": {"T": {"type": "DT_FLOAT"}}}, {"name": "PartitionedCall/model_1/tf.nn.convolution_49/convolution", "op": "Conv2D", "input": ["PartitionedCall/model_1/tf.math.multiply_143/Mul", "8299"], "device": "/device:CPU:0", "attr": {"T": {"type": "DT_FLOAT"}, "use_cudnn_on_gpu": {"b": true}, "explicit_paddings": {"list": {}}, "strides": {"list": {"i": ["1", "1", "1", "1"]}}, "padding": {"s": "U0FNRQ=="}, "data_format": {"s": "TkhXQw=="}, "dilations": {"list": {"i": ["1", "1", "1", "1"]}}}}, {"name": "PartitionedCall/model_1/tf.nn.convolution_50/convolution", "op": "Conv2D", "input": ["PartitionedCall/model_1/tf.math.multiply_146/Mul", "8297"], "device": "/device:CPU:0", "attr": {"padding": {"s": "U0FNRQ=="}, "explicit_paddings": {"list": {}}, "strides": {"list": {"i": ["1", "1", "1", "1"]}}, "data_format": {"s": "TkhXQw=="}, "dilations": {"list": {"i": ["1", "1", "1", "1"]}}, "use_cudnn_on_gpu": {"b": true}, "T": {"type": "DT_FLOAT"}}}, {"name": "PartitionedCall/model_1/tf.math.multiply_140/Mul", "op": "Mul", "input": ["PartitionedCall/model_1/tf.math.add_58/Add", "PartitionedCall/model_1/tf.math.sigmoid_44/Sigmoid"], "attr": {"T": {"type": "DT_FLOAT"}}}, {"name": "PartitionedCall/model_1/tf.math.add_61/Add", "op": "AddV2", "input": ["PartitionedCall/model_1/tf.nn.convolution_49/convolution", "8311"], "attr": {"T": {"type": "DT_FLOAT"}}}, {"name": "PartitionedCall/model_1/tf.math.add_62/Add", "op": "AddV2", "input": ["PartitionedCall/model_1/tf.nn.convolution_50/convolution", "8309"], "attr": {"T": {"type": "DT_FLOAT"}}}, {"name": "PartitionedCall/model_1/tf.concat_12/concat", "op": "ConcatV2", "input": ["PartitionedCall/model_1/tf.math.multiply_140/Mul", "PartitionedCall/model_1/tf.math.multiply_86/Mul", "PartitionedCall/model_1/tf.concat_12/concat/axis"], "attr": {"Tidx": {"type": "DT_INT32"}, "N": {"i": "2"}, "T": {"type": "DT_FLOAT"}}}, {"name": "PartitionedCall/model_1/tf.math.sigmoid_47/Sigmoid", "op": "Sigmoid", "input": ["PartitionedCall/model_1/tf.math.add_61/Add"], "attr": {"T": {"type": "DT_FLOAT"}}}, {"name": "PartitionedCall/model_1/tf.math.sigmoid_48/Sigmoid", "op": "Sigmoid", "input": ["PartitionedCall/model_1/tf.math.add_62/Add"], "attr": {"T": {"type": "DT_FLOAT"}}}, {"name": "PartitionedCall/model_1/tf.nn.convolution_51/convolution", "op": "Conv2D", "input": ["PartitionedCall/model_1/tf.concat_12/concat", "8245"], "device": "/device:CPU:0", "attr": {"use_cudnn_on_gpu": {"b": true}, "strides": {"list": {"i": ["1", "1", "1", "1"]}}, "explicit_paddings": {"list": {}}, "data_format": {"s": "TkhXQw=="}, "padding": {"s": "U0FNRQ=="}, "dilations": {"list": {"i": ["1", "1", "1", "1"]}}, "T": {"type": "DT_FLOAT"}}}, {"name": "PartitionedCall/model_1/tf.math.multiply_149/Mul", "op": "Mul", "input": ["PartitionedCall/model_1/tf.math.add_61/Add", "PartitionedCall/model_1/tf.math.sigmoid_47/Sigmoid"], "attr": {"T": {"type": "DT_FLOAT"}}}, {"name": "PartitionedCall/model_1/tf.math.multiply_152/Mul", "op": "Mul", "input": ["PartitionedCall/model_1/tf.math.add_62/Add", "PartitionedCall/model_1/tf.math.sigmoid_48/Sigmoid"], "attr": {"T": {"type": "DT_FLOAT"}}}, {"name": "PartitionedCall/model_1/tf.math.add_63/Add", "op": "AddV2", "input": ["PartitionedCall/model_1/tf.nn.convolution_51/convolution", "8247"], "attr": {"T": {"type": "DT_FLOAT"}}}, {"name": "PartitionedCall/model_1/tf.nn.convolution_52/convolution", "op": "Conv2D", "input": ["PartitionedCall/model_1/tf.math.multiply_149/Mul", "8323"], "device": "/device:CPU:0", "attr": {"dilations": {"list": {"i": ["1", "1", "1", "1"]}}, "padding": {"s": "U0FNRQ=="}, "explicit_paddings": {"list": {}}, "data_format": {"s": "TkhXQw=="}, "strides": {"list": {"i": ["1", "1", "1", "1"]}}, "T": {"type": "DT_FLOAT"}, "use_cudnn_on_gpu": {"b": true}}}, {"name": "PartitionedCall/model_1/tf.nn.convolution_53/convolution", "op": "Conv2D", "input": ["PartitionedCall/model_1/tf.math.multiply_152/Mul", "8321"], "device": "/device:CPU:0", "attr": {"strides": {"list": {"i": ["1", "1", "1", "1"]}}, "explicit_paddings": {"list": {}}, "padding": {"s": "U0FNRQ=="}, "data_format": {"s": "TkhXQw=="}, "dilations": {"list": {"i": ["1", "1", "1", "1"]}}, "T": {"type": "DT_FLOAT"}, "use_cudnn_on_gpu": {"b": true}}}, {"name": "PartitionedCall/model_1/tf.math.sigmoid_49/Sigmoid", "op": "Sigmoid", "input": ["PartitionedCall/model_1/tf.math.add_63/Add"], "attr": {"T": {"type": "DT_FLOAT"}}}, {"name": "PartitionedCall/model_1/tf.math.add_64/Add", "op": "AddV2", "input": ["PartitionedCall/model_1/tf.nn.convolution_52/convolution", "8333"], "attr": {"T": {"type": "DT_FLOAT"}}}, {"name": "PartitionedCall/model_1/tf.math.add_65/Add", "op": "AddV2", "input": ["PartitionedCall/model_1/tf.nn.convolution_53/convolution", "8335"], "attr": {"T": {"type": "DT_FLOAT"}}}, {"name": "PartitionedCall/model_1/tf.math.multiply_155/Mul", "op": "Mul", "input": ["PartitionedCall/model_1/tf.math.add_63/Add", "PartitionedCall/model_1/tf.math.sigmoid_49/Sigmoid"], "attr": {"T": {"type": "DT_FLOAT"}}}, {"name": "PartitionedCall/model_1/tf.concat_13/concat", "op": "ConcatV2", "input": ["PartitionedCall/model_1/tf.math.add_64/Add", "PartitionedCall/model_1/tf.math.add_65/Add", "PartitionedCall/model_1/tf.concat_13/concat/axis"], "attr": {"T": {"type": "DT_FLOAT"}, "Tidx": {"type": "DT_INT32"}, "N": {"i": "2"}}}, {"name": "PartitionedCall/model_1/tf.strided_slice_14/StridedSlice", "op": "StridedSlice", "input": ["PartitionedCall/model_1/tf.math.multiply_155/Mul", "8261", "8263", "PartitionedCall/model_1/tf.strided_slice_14/ones_like"], "attr": {"Index": {"type": "DT_INT64"}, "T": {"type": "DT_FLOAT"}, "begin_mask": {"i": "15"}, "shrink_axis_mask": {"i": "0"}, "new_axis_mask": {"i": "0"}, "ellipsis_mask": {"i": "0"}, "end_mask": {"i": "7"}}}, {"name": "PartitionedCall/model_1/tf.strided_slice_15/StridedSlice", "op": "StridedSlice", "input": ["PartitionedCall/model_1/tf.math.multiply_155/Mul", "8249", "8251", "PartitionedCall/model_1/tf.strided_slice_15/ones_like"], "attr": {"begin_mask": {"i": "7"}, "Index": {"type": "DT_INT64"}, "end_mask": {"i": "7"}, "new_axis_mask": {"i": "0"}, "shrink_axis_mask": {"i": "0"}, "ellipsis_mask": {"i": "0"}, "T": {"type": "DT_FLOAT"}}}, {"name": "PartitionedCall/model_1/tf.compat.v1.transpose_1/transpose", "op": "Transpose", "input": ["PartitionedCall/model_1/tf.concat_13/concat", "PartitionedCall/model_1/tf.compat.v1.transpose_1/transpose/perm"], "attr": {"T": {"type": "DT_FLOAT"}, "Tperm": {"type": "DT_INT32"}}}, {"name": "PartitionedCall/model_1/tf.nn.convolution_54/convolution", "op": "Conv2D", "input": ["PartitionedCall/model_1/tf.strided_slice_15/StridedSlice", "8253"], "device": "/device:CPU:0", "attr": {"dilations": {"list": {"i": ["1", "1", "1", "1"]}}, "data_format": {"s": "TkhXQw=="}, "explicit_paddings": {"list": {}}, "padding": {"s": "U0FNRQ=="}, "strides": {"list": {"i": ["1", "1", "1", "1"]}}, "T": {"type": "DT_FLOAT"}, "use_cudnn_on_gpu": {"b": true}}}, {"name": "PartitionedCall/model_1/tf.reshape_1/Reshape", "op": "Reshape", "input": ["PartitionedCall/model_1/tf.compat.v1.transpose_1/transpose", "PartitionedCall/model_1/tf.reshape_1/Reshape/shape"], "attr": {"Tshape": {"type": "DT_INT32"}, "T": {"type": "DT_FLOAT"}}}, {"name": "PartitionedCall/model_1/tf.math.add_66/Add", "op": "AddV2", "input": ["PartitionedCall/model_1/tf.nn.convolution_54/convolution", "8255"], "attr": {"T": {"type": "DT_FLOAT"}}}, {"name": "PartitionedCall/model_1/tf.math.sigmoid_50/Sigmoid", "op": "Sigmoid", "input": ["PartitionedCall/model_1/tf.math.add_66/Add"], "attr": {"T": {"type": "DT_FLOAT"}}}, {"name": "PartitionedCall/model_1/tf.math.multiply_158/Mul", "op": "Mul", "input": ["PartitionedCall/model_1/tf.math.add_66/Add", "PartitionedCall/model_1/tf.math.sigmoid_50/Sigmoid"], "attr": {"T": {"type": "DT_FLOAT"}}}, {"name": "PartitionedCall/model_1/tf.nn.convolution_55/convolution", "op": "Conv2D", "input": ["PartitionedCall/model_1/tf.math.multiply_158/Mul", "8257"], "device": "/device:CPU:0", "attr": {"data_format": {"s": "TkhXQw=="}, "strides": {"list": {"i": ["1", "1", "1", "1"]}}, "T": {"type": "DT_FLOAT"}, "padding": {"s": "U0FNRQ=="}, "use_cudnn_on_gpu": {"b": true}, "explicit_paddings": {"list": {}}, "dilations": {"list": {"i": ["1", "1", "1", "1"]}}}}, {"name": "PartitionedCall/model_1/tf.math.add_67/Add", "op": "AddV2", "input": ["PartitionedCall/model_1/tf.nn.convolution_55/convolution", "8259"], "attr": {"T": {"type": "DT_FLOAT"}}}, {"name": "PartitionedCall/model_1/tf.math.sigmoid_51/Sigmoid", "op": "Sigmoid", "input": ["PartitionedCall/model_1/tf.math.add_67/Add"], "attr": {"T": {"type": "DT_FLOAT"}}}, {"name": "PartitionedCall/model_1/tf.math.multiply_161/Mul", "op": "Mul", "input": ["PartitionedCall/model_1/tf.math.add_67/Add", "PartitionedCall/model_1/tf.math.sigmoid_51/Sigmoid"], "attr": {"T": {"type": "DT_FLOAT"}}}, {"name": "PartitionedCall/model_1/tf.concat_14/concat", "op": "ConcatV2", "input": ["PartitionedCall/model_1/tf.strided_slice_14/StridedSlice", "PartitionedCall/model_1/tf.strided_slice_15/StridedSlice", "PartitionedCall/model_1/tf.math.multiply_161/Mul", "PartitionedCall/model_1/tf.concat_14/concat/axis"], "attr": {"N": {"i": "3"}, "Tidx": {"type": "DT_INT32"}, "T": {"type": "DT_FLOAT"}}}, {"name": "PartitionedCall/model_1/tf.nn.convolution_56/convolution", "op": "Conv2D", "input": ["PartitionedCall/model_1/tf.concat_14/concat", "8265"], "device": "/device:CPU:0", "attr": {"use_cudnn_on_gpu": {"b": true}, "dilations": {"list": {"i": ["1", "1", "1", "1"]}}, "padding": {"s": "U0FNRQ=="}, "data_format": {"s": "TkhXQw=="}, "T": {"type": "DT_FLOAT"}, "explicit_paddings": {"list": {}}, "strides": {"list": {"i": ["1", "1", "1", "1"]}}}}, {"name": "PartitionedCall/model_1/tf.math.add_68/Add", "op": "AddV2", "input": ["PartitionedCall/model_1/tf.nn.convolution_56/convolution", "8267"], "attr": {"T": {"type": "DT_FLOAT"}}}, {"name": "PartitionedCall/model_1/tf.math.sigmoid_52/Sigmoid", "op": "Sigmoid", "input": ["PartitionedCall/model_1/tf.math.add_68/Add"], "attr": {"T": {"type": "DT_FLOAT"}}}, {"name": "PartitionedCall/model_1/tf.math.multiply_164/Mul", "op": "Mul", "input": ["PartitionedCall/model_1/tf.math.add_68/Add", "PartitionedCall/model_1/tf.math.sigmoid_52/Sigmoid"], "attr": {"T": {"type": "DT_FLOAT"}}}, {"name": "PartitionedCall/model_1/tf.nn.convolution_57/convolution", "op": "Conv2D", "input": ["PartitionedCall/model_1/tf.math.multiply_164/Mul", "8271"], "device": "/device:CPU:0", "attr": {"use_cudnn_on_gpu": {"b": true}, "strides": {"list": {"i": ["1", "1", "1", "1"]}}, "T": {"type": "DT_FLOAT"}, "dilations": {"list": {"i": ["1", "1", "1", "1"]}}, "explicit_paddings": {"list": {}}, "data_format": {"s": "TkhXQw=="}, "padding": {"s": "U0FNRQ=="}}}, {"name": "PartitionedCall/model_1/tf.nn.convolution_58/convolution", "op": "Conv2D", "input": ["PartitionedCall/model_1/tf.math.multiply_164/Mul", "8269"], "device": "/device:CPU:0", "attr": {"strides": {"list": {"i": ["1", "1", "1", "1"]}}, "data_format": {"s": "TkhXQw=="}, "explicit_paddings": {"list": {}}, "padding": {"s": "U0FNRQ=="}, "use_cudnn_on_gpu": {"b": true}, "dilations": {"list": {"i": ["1", "1", "1", "1"]}}, "T": {"type": "DT_FLOAT"}}}, {"name": "PartitionedCall/model_1/tf.math.add_69/Add", "op": "AddV2", "input": ["PartitionedCall/model_1/tf.nn.convolution_57/convolution", "8283"], "attr": {"T": {"type": "DT_FLOAT"}}}, {"name": "PartitionedCall/model_1/tf.math.add_70/Add", "op": "AddV2", "input": ["PartitionedCall/model_1/tf.nn.convolution_58/convolution", "8281"], "attr": {"T": {"type": "DT_FLOAT"}}}, {"name": "PartitionedCall/model_1/tf.math.sigmoid_53/Sigmoid", "op": "Sigmoid", "input": ["PartitionedCall/model_1/tf.math.add_69/Add"], "attr": {"T": {"type": "DT_FLOAT"}}}, {"name": "PartitionedCall/model_1/tf.math.sigmoid_54/Sigmoid", "op": "Sigmoid", "input": ["PartitionedCall/model_1/tf.math.add_70/Add"], "attr": {"T": {"type": "DT_FLOAT"}}}, {"name": "PartitionedCall/model_1/tf.math.multiply_167/Mul", "op": "Mul", "input": ["PartitionedCall/model_1/tf.math.add_69/Add", "PartitionedCall/model_1/tf.math.sigmoid_53/Sigmoid"], "attr": {"T": {"type": "DT_FLOAT"}}}, {"name": "PartitionedCall/model_1/tf.math.multiply_170/Mul", "op": "Mul", "input": ["PartitionedCall/model_1/tf.math.add_70/Add", "PartitionedCall/model_1/tf.math.sigmoid_54/Sigmoid"], "attr": {"T": {"type": "DT_FLOAT"}}}, {"name": "PartitionedCall/model_1/tf.nn.convolution_59/convolution", "op": "Conv2D", "input": ["PartitionedCall/model_1/tf.math.multiply_167/Mul", "8295"], "device": "/device:CPU:0", "attr": {"dilations": {"list": {"i": ["1", "1", "1", "1"]}}, "data_format": {"s": "TkhXQw=="}, "padding": {"s": "U0FNRQ=="}, "explicit_paddings": {"list": {}}, "T": {"type": "DT_FLOAT"}, "strides": {"list": {"i": ["1", "1", "1", "1"]}}, "use_cudnn_on_gpu": {"b": true}}}, {"name": "PartitionedCall/model_1/tf.nn.convolution_60/convolution", "op": "Conv2D", "input": ["PartitionedCall/model_1/tf.math.multiply_170/Mul", "8293"], "device": "/device:CPU:0", "attr": {"strides": {"list": {"i": ["1", "1", "1", "1"]}}, "padding": {"s": "U0FNRQ=="}, "explicit_paddings": {"list": {}}, "dilations": {"list": {"i": ["1", "1", "1", "1"]}}, "T": {"type": "DT_FLOAT"}, "data_format": {"s": "TkhXQw=="}, "use_cudnn_on_gpu": {"b": true}}}, {"name": "PartitionedCall/model_1/tf.math.add_71/Add", "op": "AddV2", "input": ["PartitionedCall/model_1/tf.nn.convolution_59/convolution", "8307"], "attr": {"T": {"type": "DT_FLOAT"}}}, {"name": "PartitionedCall/model_1/tf.math.add_72/Add", "op": "AddV2", "input": ["PartitionedCall/model_1/tf.nn.convolution_60/convolution", "8305"], "attr": {"T": {"type": "DT_FLOAT"}}}, {"name": "PartitionedCall/model_1/tf.math.sigmoid_55/Sigmoid", "op": "Sigmoid", "input": ["PartitionedCall/model_1/tf.math.add_71/Add"], "attr": {"T": {"type": "DT_FLOAT"}}}, {"name": "PartitionedCall/model_1/tf.math.sigmoid_56/Sigmoid", "op": "Sigmoid", "input": ["PartitionedCall/model_1/tf.math.add_72/Add"], "attr": {"T": {"type": "DT_FLOAT"}}}, {"name": "PartitionedCall/model_1/tf.math.multiply_173/Mul", "op": "Mul", "input": ["PartitionedCall/model_1/tf.math.add_71/Add", "PartitionedCall/model_1/tf.math.sigmoid_55/Sigmoid"], "attr": {"T": {"type": "DT_FLOAT"}}}, {"name": "PartitionedCall/model_1/tf.math.multiply_176/Mul", "op": "Mul", "input": ["PartitionedCall/model_1/tf.math.add_72/Add", "PartitionedCall/model_1/tf.math.sigmoid_56/Sigmoid"], "attr": {"T": {"type": "DT_FLOAT"}}}, {"name": "PartitionedCall/model_1/tf.nn.convolution_61/convolution", "op": "Conv2D", "input": ["PartitionedCall/model_1/tf.math.multiply_173/Mul", "8319"], "device": "/device:CPU:0", "attr": {"T": {"type": "DT_FLOAT"}, "use_cudnn_on_gpu": {"b": true}, "padding": {"s": "U0FNRQ=="}, "strides": {"list": {"i": ["1", "1", "1", "1"]}}, "dilations": {"list": {"i": ["1", "1", "1", "1"]}}, "explicit_paddings": {"list": {}}, "data_format": {"s": "TkhXQw=="}}}, {"name": "PartitionedCall/model_1/tf.nn.convolution_62/convolution", "op": "Conv2D", "input": ["PartitionedCall/model_1/tf.math.multiply_176/Mul", "8317"], "device": "/device:CPU:0", "attr": {"use_cudnn_on_gpu": {"b": true}, "strides": {"list": {"i": ["1", "1", "1", "1"]}}, "T": {"type": "DT_FLOAT"}, "padding": {"s": "U0FNRQ=="}, "dilations": {"list": {"i": ["1", "1", "1", "1"]}}, "explicit_paddings": {"list": {}}, "data_format": {"s": "TkhXQw=="}}}, {"name": "PartitionedCall/model_1/tf.math.add_73/Add", "op": "AddV2", "input": ["PartitionedCall/model_1/tf.nn.convolution_61/convolution", "8329"], "attr": {"T": {"type": "DT_FLOAT"}}}, {"name": "PartitionedCall/model_1/tf.math.add_74/Add", "op": "AddV2", "input": ["PartitionedCall/model_1/tf.nn.convolution_62/convolution", "8331"], "attr": {"T": {"type": "DT_FLOAT"}}}, {"name": "PartitionedCall/model_1/tf.concat_15/concat", "op": "ConcatV2", "input": ["PartitionedCall/model_1/tf.math.add_73/Add", "PartitionedCall/model_1/tf.math.add_74/Add", "PartitionedCall/model_1/tf.concat_15/concat/axis"], "attr": {"N": {"i": "2"}, "T": {"type": "DT_FLOAT"}, "Tidx": {"type": "DT_INT32"}}}, {"name": "PartitionedCall/model_1/tf.compat.v1.transpose_2/transpose", "op": "Transpose", "input": ["PartitionedCall/model_1/tf.concat_15/concat", "PartitionedCall/model_1/tf.compat.v1.transpose_2/transpose/perm"], "attr": {"T": {"type": "DT_FLOAT"}, "Tperm": {"type": "DT_INT32"}}}, {"name": "PartitionedCall/model_1/tf.reshape_2/Reshape", "op": "Reshape", "input": ["PartitionedCall/model_1/tf.compat.v1.transpose_2/transpose", "PartitionedCall/model_1/tf.reshape_2/Reshape/shape"], "attr": {"T": {"type": "DT_FLOAT"}, "Tshape": {"type": "DT_INT32"}}}, {"name": "PartitionedCall/model_1/tf.concat_16/concat", "op": "ConcatV2", "input": ["PartitionedCall/model_1/tf.reshape/Reshape", "PartitionedCall/model_1/tf.reshape_1/Reshape", "PartitionedCall/model_1/tf.reshape_2/Reshape", "PartitionedCall/model_1/tf.concat_16/concat/axis"], "attr": {"N": {"i": "3"}, "T": {"type": "DT_FLOAT"}, "Tidx": {"type": "DT_INT32"}}}, {"name": "PartitionedCall/model_1/tf.strided_slice_16/StridedSlice", "op": "StridedSlice", "input": ["PartitionedCall/model_1/tf.concat_16/concat", "8341", "8343", "PartitionedCall/model_1/tf.strided_slice_16/StridedSlice/strides"], "attr": {"shrink_axis_mask": {"i": "0"}, "end_mask": {"i": "5"}, "Index": {"type": "DT_INT64"}, "T": {"type": "DT_FLOAT"}, "new_axis_mask": {"i": "0"}, "ellipsis_mask": {"i": "0"}, "begin_mask": {"i": "7"}}}, {"name": "PartitionedCall/model_1/tf.strided_slice_17/StridedSlice", "op": "StridedSlice", "input": ["PartitionedCall/model_1/tf.concat_16/concat", "8361", "8363", "PartitionedCall/model_1/tf.strided_slice_17/StridedSlice/strides"], "attr": {"ellipsis_mask": {"i": "0"}, "shrink_axis_mask": {"i": "0"}, "new_axis_mask": {"i": "0"}, "end_mask": {"i": "5"}, "Index": {"type": "DT_INT64"}, "T": {"type": "DT_FLOAT"}, "begin_mask": {"i": "5"}}}, {"name": "PartitionedCall/model_1/tf.reshape_3/Reshape", "op": "Reshape", "input": ["PartitionedCall/model_1/tf.strided_slice_16/StridedSlice", "PartitionedCall/model_1/tf.reshape_3/Reshape/shape"], "attr": {"Tshape": {"type": "DT_INT32"}, "T": {"type": "DT_FLOAT"}}}, {"name": "PartitionedCall/model_1/tf.math.sigmoid_57/Sigmoid", "op": "Sigmoid", "input": ["PartitionedCall/model_1/tf.strided_slice_17/StridedSlice"], "attr": {"T": {"type": "DT_FLOAT"}}}, {"name": "PartitionedCall/model_1/tf.compat.v1.transpose_4/transpose", "op": "Transpose", "input": ["PartitionedCall/model_1/tf.reshape_3/Reshape", "PartitionedCall/model_1/tf.compat.v1.transpose_4/transpose/perm"], "attr": {"T": {"type": "DT_FLOAT"}, "Tperm": {"type": "DT_INT32"}}}, {"name": "PartitionedCall/model_1/tf.compat.v1.transpose_5/transpose", "op": "Transpose", "input": ["PartitionedCall/model_1/tf.compat.v1.transpose_4/transpose", "PartitionedCall/model_1/tf.compat.v1.transpose_5/transpose/perm"], "attr": {"T": {"type": "DT_FLOAT"}, "Tperm": {"type": "DT_INT32"}}}, {"name": "PartitionedCall/model_1/tf.nn.softmax/Softmax", "op": "Softmax", "input": ["PartitionedCall/model_1/tf.compat.v1.transpose_5/transpose"], "attr": {"T": {"type": "DT_FLOAT"}}}, {"name": "PartitionedCall/model_1/tf.nn.convolution_63/convolution", "op": "Conv2D", "input": ["PartitionedCall/model_1/tf.nn.softmax/Softmax", "8345"], "device": "/device:CPU:0", "attr": {"dilations": {"list": {"i": ["1", "1", "1", "1"]}}, "data_format": {"s": "TkhXQw=="}, "padding": {"s": "U0FNRQ=="}, "explicit_paddings": {"list": {}}, "strides": {"list": {"i": ["1", "1", "1", "1"]}}, "use_cudnn_on_gpu": {"b": true}, "T": {"type": "DT_FLOAT"}}}, {"name": "PartitionedCall/model_1/tf.compat.v1.transpose_8/transpose", "op": "Transpose", "input": ["PartitionedCall/model_1/tf.nn.convolution_63/convolution", "PartitionedCall/model_1/tf.compat.v1.transpose_8/transpose/perm"], "attr": {"Tperm": {"type": "DT_INT32"}, "T": {"type": "DT_FLOAT"}}}, {"name": "PartitionedCall/model_1/tf.reshape_4/Reshape", "op": "Reshape", "input": ["PartitionedCall/model_1/tf.compat.v1.transpose_8/transpose", "PartitionedCall/model_1/tf.reshape_4/Reshape/shape"], "attr": {"Tshape": {"type": "DT_INT32"}, "T": {"type": "DT_FLOAT"}}}, {"name": "PartitionedCall/model_1/tf.strided_slice_19/StridedSlice", "op": "StridedSlice", "input": ["PartitionedCall/model_1/tf.reshape_4/Reshape", "8347", "8349", "PartitionedCall/model_1/tf.strided_slice_19/ones_like"], "attr": {"T": {"type": "DT_FLOAT"}, "begin_mask": {"i": "5"}, "new_axis_mask": {"i": "0"}, "Index": {"type": "DT_INT64"}, "shrink_axis_mask": {"i": "0"}, "end_mask": {"i": "5"}, "ellipsis_mask": {"i": "0"}}}, {"name": "PartitionedCall/model_1/tf.strided_slice_18/StridedSlice", "op": "StridedSlice", "input": ["PartitionedCall/model_1/tf.reshape_4/Reshape", "8351", "8353", "PartitionedCall/model_1/tf.strided_slice_18/ones_like"], "attr": {"begin_mask": {"i": "7"}, "new_axis_mask": {"i": "0"}, "Index": {"type": "DT_INT64"}, "shrink_axis_mask": {"i": "0"}, "ellipsis_mask": {"i": "0"}, "end_mask": {"i": "5"}, "T": {"type": "DT_FLOAT"}}}, {"name": "PartitionedCall/model_1/tf.math.add_75/Add", "op": "AddV2", "input": ["8355", "PartitionedCall/model_1/tf.strided_slice_19/StridedSlice"], "attr": {"T": {"type": "DT_FLOAT"}}}, {"name": "PartitionedCall/model_1/tf.math.subtract/Sub", "op": "Sub", "input": ["8357", "PartitionedCall/model_1/tf.strided_slice_18/StridedSlice"], "attr": {"T": {"type": "DT_FLOAT"}}}, {"name": "PartitionedCall/model_1/tf.math.add_76/Add", "op": "AddV2", "input": ["PartitionedCall/model_1/tf.math.subtract/Sub", "PartitionedCall/model_1/tf.math.add_75/Add"], "attr": {"T": {"type": "DT_FLOAT"}}}, {"name": "PartitionedCall/model_1/tf.math.subtract_1/Sub", "op": "Sub", "input": ["PartitionedCall/model_1/tf.math.add_75/Add", "PartitionedCall/model_1/tf.math.subtract/Sub"], "attr": {"T": {"type": "DT_FLOAT"}}}, {"name": "PartitionedCall/model_1/tf.math.divide/truediv", "op": "Mul", "input": ["PartitionedCall/model_1/tf.math.add_76/Add", "ConstantFolding/PartitionedCall/model_1/tf.math.divide/truediv_recip"], "attr": {"T": {"type": "DT_FLOAT"}}}, {"name": "PartitionedCall/model_1/tf.concat_17/concat", "op": "ConcatV2", "input": ["PartitionedCall/model_1/tf.math.divide/truediv", "PartitionedCall/model_1/tf.math.subtract_1/Sub", "PartitionedCall/model_1/tf.concat_17/concat/axis"], "attr": {"T": {"type": "DT_FLOAT"}, "N": {"i": "2"}, "Tidx": {"type": "DT_INT32"}}}, {"name": "PartitionedCall/model_1/tf.math.multiply_185/Mul", "op": "Mul", "input": ["PartitionedCall/model_1/tf.concat_17/concat", "PartitionedCall/model_1/tf.math.multiply_185/Mul/y"], "attr": {"T": {"type": "DT_FLOAT"}}}, {"name": "PartitionedCall/model_1/output0/concat", "op": "ConcatV2", "input": ["PartitionedCall/model_1/tf.math.multiply_185/Mul", "PartitionedCall/model_1/tf.math.sigmoid_57/Sigmoid", "PartitionedCall/model_1/output0/concat/axis"], "attr": {"N": {"i": "2"}, "Tidx": {"type": "DT_INT32"}, "T": {"type": "DT_FLOAT"}}}, {"name": "Identity", "op": "Identity", "input": ["PartitionedCall/model_1/output0/concat"], "attr": {"T": {"type": "DT_FLOAT"}}}], "library": {}, "versions": {"producer": 1395}}, "weightsManifest": [{"paths": ["group1-shard1of3.bin", "group1-shard2of3.bin", "group1-shard3of3.bin"], "weights": [{"name": "ConstantFolding/PartitionedCall/model_1/tf.math.divide/truediv_recip", "shape": [1, 1, 1], "dtype": "float32"}, {"name": "8355", "shape": [1, 2, 8400], "dtype": "float32"}, {"name": "8347", "shape": [3], "dtype": "int32"}, {"name": "8349", "shape": [3], "dtype": "int32"}, {"name": "PartitionedCall/model_1/tf.strided_slice_19/ones_like", "shape": [3], "dtype": "int32"}, {"name": "8357", "shape": [1, 2, 8400], "dtype": "float32"}, {"name": "8341", "shape": [3], "dtype": "int32"}, {"name": "8343", "shape": [3], "dtype": "int32"}, {"name": "PartitionedCall/model_1/tf.strided_slice_16/StridedSlice/strides", "shape": [3], "dtype": "int32"}, {"name": "PartitionedCall/model_1/tf.reshape_3/Reshape/shape", "shape": [4], "dtype": "int32"}, {"name": "PartitionedCall/model_1/tf.compat.v1.transpose_4/transpose/perm", "shape": [4], "dtype": "int32"}, {"name": "PartitionedCall/model_1/tf.compat.v1.transpose_5/transpose/perm", "shape": [4], "dtype": "int32"}, {"name": "8345", "shape": [1, 1, 16, 1], "dtype": "float32"}, {"name": "PartitionedCall/model_1/tf.compat.v1.transpose_8/transpose/perm", "shape": [4], "dtype": "int32"}, {"name": "PartitionedCall/model_1/tf.reshape_4/Reshape/shape", "shape": [3], "dtype": "int32"}, {"name": "8351", "shape": [3], "dtype": "int32"}, {"name": "8353", "shape": [3], "dtype": "int32"}, {"name": "PartitionedCall/model_1/tf.strided_slice_18/ones_like", "shape": [3], "dtype": "int32"}, {"name": "PartitionedCall/model_1/tf.concat_17/concat/axis", "shape": [], "dtype": "int32"}, {"name": "PartitionedCall/model_1/tf.math.multiply_185/Mul/y", "shape": [1, 1, 8400], "dtype": "float32"}, {"name": "8279", "shape": [3, 3, 64, 64], "dtype": "float32"}, {"name": "8291", "shape": [64], "dtype": "float32"}, {"name": "8303", "shape": [3, 3, 64, 64], "dtype": "float32"}, {"name": "8315", "shape": [64], "dtype": "float32"}, {"name": "8327", "shape": [1, 1, 64, 64], "dtype": "float32"}, {"name": "8337", "shape": [64], "dtype": "float32"}, {"name": "8277", "shape": [3, 3, 64, 64], "dtype": "float32"}, {"name": "8289", "shape": [64], "dtype": "float32"}, {"name": "8301", "shape": [3, 3, 64, 64], "dtype": "float32"}, {"name": "8313", "shape": [64], "dtype": "float32"}, {"name": "8325", "shape": [1, 1, 64, 19], "dtype": "float32"}, {"name": "8339", "shape": [19], "dtype": "float32"}, {"name": "PartitionedCall/model_1/tf.concat_10/concat/axis", "shape": [], "dtype": "int32"}, {"name": "PartitionedCall/model_1/tf.compat.v1.transpose/transpose/perm", "shape": [4], "dtype": "int32"}, {"name": "PartitionedCall/model_1/tf.reshape/Reshape/shape", "shape": [3], "dtype": "int32"}, {"name": "8275", "shape": [3, 3, 128, 64], "dtype": "float32"}, {"name": "8287", "shape": [64], "dtype": "float32"}, {"name": "8299", "shape": [3, 3, 64, 64], "dtype": "float32"}, {"name": "8311", "shape": [64], "dtype": "float32"}, {"name": "8323", "shape": [1, 1, 64, 64], "dtype": "float32"}, {"name": "8333", "shape": [64], "dtype": "float32"}, {"name": "8273", "shape": [3, 3, 128, 64], "dtype": "float32"}, {"name": "8285", "shape": [64], "dtype": "float32"}, {"name": "8297", "shape": [3, 3, 64, 64], "dtype": "float32"}, {"name": "8309", "shape": [64], "dtype": "float32"}, {"name": "8321", "shape": [1, 1, 64, 19], "dtype": "float32"}, {"name": "8335", "shape": [19], "dtype": "float32"}, {"name": "PartitionedCall/model_1/tf.concat_13/concat/axis", "shape": [], "dtype": "int32"}, {"name": "PartitionedCall/model_1/tf.compat.v1.transpose_1/transpose/perm", "shape": [4], "dtype": "int32"}, {"name": "PartitionedCall/model_1/tf.reshape_1/Reshape/shape", "shape": [3], "dtype": "int32"}, {"name": "8271", "shape": [3, 3, 256, 64], "dtype": "float32"}, {"name": "8283", "shape": [64], "dtype": "float32"}, {"name": "8295", "shape": [3, 3, 64, 64], "dtype": "float32"}, {"name": "8307", "shape": [64], "dtype": "float32"}, {"name": "8319", "shape": [1, 1, 64, 64], "dtype": "float32"}, {"name": "8329", "shape": [64], "dtype": "float32"}, {"name": "8261", "shape": [4], "dtype": "int32"}, {"name": "8263", "shape": [4], "dtype": "int32"}, {"name": "PartitionedCall/model_1/tf.strided_slice_14/ones_like", "shape": [4], "dtype": "int32"}, {"name": "8231", "shape": [4], "dtype": "int32"}, {"name": "8233", "shape": [4], "dtype": "int32"}, {"name": "PartitionedCall/model_1/tf.strided_slice_12/ones_like", "shape": [4], "dtype": "int32"}, {"name": "8201", "shape": [4], "dtype": "int32"}, {"name": "8203", "shape": [4], "dtype": "int32"}, {"name": "PartitionedCall/model_1/tf.strided_slice_10/ones_like", "shape": [4], "dtype": "int32"}, {"name": "PartitionedCall/model_1/lambda_1//model.13/Resize/size", "shape": [2], "dtype": "int32"}, {"name": "PartitionedCall/model_1/tf.concat_7/concat/axis", "shape": [], "dtype": "int32"}, {"name": "8185", "shape": [1, 1, 192, 64], "dtype": "float32"}, {"name": "8187", "shape": [64], "dtype": "float32"}, {"name": "8189", "shape": [4], "dtype": "int32"}, {"name": "8191", "shape": [4], "dtype": "int32"}, {"name": "PartitionedCall/model_1/tf.strided_slice_11/ones_like", "shape": [4], "dtype": "int32"}, {"name": "8193", "shape": [3, 3, 32, 32], "dtype": "float32"}, {"name": "8195", "shape": [32], "dtype": "float32"}, {"name": "8197", "shape": [3, 3, 32, 32], "dtype": "float32"}, {"name": "8199", "shape": [32], "dtype": "float32"}, {"name": "PartitionedCall/model_1/tf.concat_8/concat/axis", "shape": [], "dtype": "int32"}, {"name": "8205", "shape": [1, 1, 96, 64], "dtype": "float32"}, {"name": "8207", "shape": [64], "dtype": "float32"}, {"name": "8209", "shape": [4, 2], "dtype": "int32"}, {"name": "8211", "shape": [3, 3, 64, 64], "dtype": "float32"}, {"name": "8213", "shape": [64], "dtype": "float32"}, {"name": "8177", "shape": [4], "dtype": "int32"}, {"name": "8179", "shape": [4], "dtype": "int32"}, {"name": "PartitionedCall/model_1/tf.strided_slice_8/ones_like", "shape": [4], "dtype": "int32"}, {"name": "PartitionedCall/model_1/lambda//model.10/Resize/size", "shape": [2], "dtype": "int32"}, {"name": "PartitionedCall/model_1/tf.concat_5/concat/axis", "shape": [], "dtype": "int32"}, {"name": "8161", "shape": [1, 1, 384, 128], "dtype": "float32"}, {"name": "8163", "shape": [128], "dtype": "float32"}, {"name": "8165", "shape": [4], "dtype": "int32"}, {"name": "8167", "shape": [4], "dtype": "int32"}, {"name": "PartitionedCall/model_1/tf.strided_slice_9/ones_like", "shape": [4], "dtype": "int32"}, {"name": "8169", "shape": [3, 3, 64, 64], "dtype": "float32"}, {"name": "8171", "shape": [64], "dtype": "float32"}, {"name": "8173", "shape": [3, 3, 64, 64], "dtype": "float32"}, {"name": "8175", "shape": [64], "dtype": "float32"}, {"name": "PartitionedCall/model_1/tf.concat_6/concat/axis", "shape": [], "dtype": "int32"}, {"name": "8181", "shape": [1, 1, 192, 128], "dtype": "float32"}, {"name": "8183", "shape": [128], "dtype": "float32"}, {"name": "PartitionedCall/model_1/tf.concat_9/concat/axis", "shape": [], "dtype": "int32"}, {"name": "8215", "shape": [1, 1, 192, 128], "dtype": "float32"}, {"name": "8217", "shape": [128], "dtype": "float32"}, {"name": "8219", "shape": [4], "dtype": "int32"}, {"name": "8221", "shape": [4], "dtype": "int32"}, {"name": "PartitionedCall/model_1/tf.strided_slice_13/ones_like", "shape": [4], "dtype": "int32"}, {"name": "8223", "shape": [3, 3, 64, 64], "dtype": "float32"}, {"name": "8225", "shape": [64], "dtype": "float32"}, {"name": "8227", "shape": [3, 3, 64, 64], "dtype": "float32"}, {"name": "8229", "shape": [64], "dtype": "float32"}, {"name": "PartitionedCall/model_1/tf.concat_11/concat/axis", "shape": [], "dtype": "int32"}, {"name": "8235", "shape": [1, 1, 192, 128], "dtype": "float32"}, {"name": "8237", "shape": [128], "dtype": "float32"}, {"name": "8239", "shape": [4, 2], "dtype": "int32"}, {"name": "8241", "shape": [3, 3, 128, 128], "dtype": "float32"}, {"name": "8243", "shape": [128], "dtype": "float32"}, {"name": "8145", "shape": [4], "dtype": "int32"}, {"name": "8147", "shape": [4], "dtype": "int32"}, {"name": "PartitionedCall/model_1/tf.strided_slice_6/ones_like", "shape": [4], "dtype": "int32"}, {"name": "8115", "shape": [4], "dtype": "int32"}, {"name": "8117", "shape": [4], "dtype": "int32"}, {"name": "PartitionedCall/model_1/tf.strided_slice_4/ones_like", "shape": [4], "dtype": "int32"}, {"name": "8077", "shape": [4], "dtype": "int32"}, {"name": "8079", "shape": [4], "dtype": "int32"}, {"name": "PartitionedCall/model_1/tf.strided_slice_2/ones_like", "shape": [4], "dtype": "int32"}, {"name": "8039", "shape": [4], "dtype": "int32"}, {"name": "8041", "shape": [4], "dtype": "int32"}, {"name": "PartitionedCall/model_1/tf.strided_slice/ones_like", "shape": [4], "dtype": "int32"}, {"name": "8011", "shape": [4, 2], "dtype": "int32"}, {"name": "8013", "shape": [3, 3, 3, 16], "dtype": "float32"}, {"name": "8015", "shape": [16], "dtype": "float32"}, {"name": "8017", "shape": [4, 2], "dtype": "int32"}, {"name": "8019", "shape": [3, 3, 16, 32], "dtype": "float32"}, {"name": "8021", "shape": [32], "dtype": "float32"}, {"name": "8023", "shape": [1, 1, 32, 32], "dtype": "float32"}, {"name": "8025", "shape": [32], "dtype": "float32"}, {"name": "8027", "shape": [4], "dtype": "int32"}, {"name": "8029", "shape": [4], "dtype": "int32"}, {"name": "PartitionedCall/model_1/tf.strided_slice_1/ones_like", "shape": [4], "dtype": "int32"}, {"name": "8031", "shape": [3, 3, 16, 16], "dtype": "float32"}, {"name": "8033", "shape": [16], "dtype": "float32"}, {"name": "8035", "shape": [3, 3, 16, 16], "dtype": "float32"}, {"name": "8037", "shape": [16], "dtype": "float32"}, {"name": "PartitionedCall/model_1/tf.concat/concat/axis", "shape": [], "dtype": "int32"}, {"name": "8043", "shape": [1, 1, 48, 32], "dtype": "float32"}, {"name": "8045", "shape": [32], "dtype": "float32"}, {"name": "8047", "shape": [4, 2], "dtype": "int32"}, {"name": "8049", "shape": [3, 3, 32, 64], "dtype": "float32"}, {"name": "8051", "shape": [64], "dtype": "float32"}, {"name": "8053", "shape": [1, 1, 64, 64], "dtype": "float32"}, {"name": "8055", "shape": [64], "dtype": "float32"}, {"name": "8057", "shape": [4], "dtype": "int32"}, {"name": "8059", "shape": [4], "dtype": "int32"}, {"name": "PartitionedCall/model_1/tf.strided_slice_3/ones_like", "shape": [4], "dtype": "int32"}, {"name": "8061", "shape": [3, 3, 32, 32], "dtype": "float32"}, {"name": "8063", "shape": [32], "dtype": "float32"}, {"name": "8065", "shape": [3, 3, 32, 32], "dtype": "float32"}, {"name": "8067", "shape": [32], "dtype": "float32"}, {"name": "8069", "shape": [3, 3, 32, 32], "dtype": "float32"}, {"name": "8071", "shape": [32], "dtype": "float32"}, {"name": "8073", "shape": [3, 3, 32, 32], "dtype": "float32"}, {"name": "8075", "shape": [32], "dtype": "float32"}, {"name": "PartitionedCall/model_1/tf.concat_1/concat/axis", "shape": [], "dtype": "int32"}, {"name": "8081", "shape": [1, 1, 128, 64], "dtype": "float32"}, {"name": "8083", "shape": [64], "dtype": "float32"}, {"name": "8085", "shape": [4, 2], "dtype": "int32"}, {"name": "8087", "shape": [3, 3, 64, 128], "dtype": "float32"}, {"name": "8089", "shape": [128], "dtype": "float32"}, {"name": "8091", "shape": [1, 1, 128, 128], "dtype": "float32"}, {"name": "8093", "shape": [128], "dtype": "float32"}, {"name": "8095", "shape": [4], "dtype": "int32"}, {"name": "8097", "shape": [4], "dtype": "int32"}, {"name": "PartitionedCall/model_1/tf.strided_slice_5/ones_like", "shape": [4], "dtype": "int32"}, {"name": "8099", "shape": [3, 3, 64, 64], "dtype": "float32"}, {"name": "8101", "shape": [64], "dtype": "float32"}, {"name": "8103", "shape": [3, 3, 64, 64], "dtype": "float32"}, {"name": "8105", "shape": [64], "dtype": "float32"}, {"name": "8107", "shape": [3, 3, 64, 64], "dtype": "float32"}, {"name": "8109", "shape": [64], "dtype": "float32"}, {"name": "8111", "shape": [3, 3, 64, 64], "dtype": "float32"}, {"name": "8113", "shape": [64], "dtype": "float32"}, {"name": "PartitionedCall/model_1/tf.concat_2/concat/axis", "shape": [], "dtype": "int32"}, {"name": "8119", "shape": [1, 1, 256, 128], "dtype": "float32"}, {"name": "8121", "shape": [128], "dtype": "float32"}, {"name": "8123", "shape": [4, 2], "dtype": "int32"}, {"name": "8125", "shape": [3, 3, 128, 256], "dtype": "float32"}, {"name": "8127", "shape": [256], "dtype": "float32"}, {"name": "8129", "shape": [1, 1, 256, 256], "dtype": "float32"}, {"name": "8131", "shape": [256], "dtype": "float32"}, {"name": "8133", "shape": [4], "dtype": "int32"}, {"name": "8135", "shape": [4], "dtype": "int32"}, {"name": "PartitionedCall/model_1/tf.strided_slice_7/ones_like", "shape": [4], "dtype": "int32"}, {"name": "8137", "shape": [3, 3, 128, 128], "dtype": "float32"}, {"name": "8139", "shape": [128], "dtype": "float32"}, {"name": "8141", "shape": [3, 3, 128, 128], "dtype": "float32"}, {"name": "8143", "shape": [128], "dtype": "float32"}, {"name": "PartitionedCall/model_1/tf.concat_3/concat/axis", "shape": [], "dtype": "int32"}, {"name": "8149", "shape": [1, 1, 384, 256], "dtype": "float32"}, {"name": "8151", "shape": [256], "dtype": "float32"}, {"name": "8153", "shape": [1, 1, 256, 128], "dtype": "float32"}, {"name": "8155", "shape": [128], "dtype": "float32"}, {"name": "PartitionedCall/model_1/tf.concat_4/concat/axis", "shape": [], "dtype": "int32"}, {"name": "8157", "shape": [1, 1, 512, 256], "dtype": "float32"}, {"name": "8159", "shape": [256], "dtype": "float32"}, {"name": "PartitionedCall/model_1/tf.concat_12/concat/axis", "shape": [], "dtype": "int32"}, {"name": "8245", "shape": [1, 1, 384, 256], "dtype": "float32"}, {"name": "8247", "shape": [256], "dtype": "float32"}, {"name": "8249", "shape": [4], "dtype": "int32"}, {"name": "8251", "shape": [4], "dtype": "int32"}, {"name": "PartitionedCall/model_1/tf.strided_slice_15/ones_like", "shape": [4], "dtype": "int32"}, {"name": "8253", "shape": [3, 3, 128, 128], "dtype": "float32"}, {"name": "8255", "shape": [128], "dtype": "float32"}, {"name": "8257", "shape": [3, 3, 128, 128], "dtype": "float32"}, {"name": "8259", "shape": [128], "dtype": "float32"}, {"name": "PartitionedCall/model_1/tf.concat_14/concat/axis", "shape": [], "dtype": "int32"}, {"name": "8265", "shape": [1, 1, 384, 256], "dtype": "float32"}, {"name": "8267", "shape": [256], "dtype": "float32"}, {"name": "8269", "shape": [3, 3, 256, 64], "dtype": "float32"}, {"name": "8281", "shape": [64], "dtype": "float32"}, {"name": "8293", "shape": [3, 3, 64, 64], "dtype": "float32"}, {"name": "8305", "shape": [64], "dtype": "float32"}, {"name": "8317", "shape": [1, 1, 64, 19], "dtype": "float32"}, {"name": "8331", "shape": [19], "dtype": "float32"}, {"name": "PartitionedCall/model_1/tf.concat_15/concat/axis", "shape": [], "dtype": "int32"}, {"name": "PartitionedCall/model_1/tf.compat.v1.transpose_2/transpose/perm", "shape": [4], "dtype": "int32"}, {"name": "PartitionedCall/model_1/tf.reshape_2/Reshape/shape", "shape": [3], "dtype": "int32"}, {"name": "PartitionedCall/model_1/tf.concat_16/concat/axis", "shape": [], "dtype": "int32"}, {"name": "8361", "shape": [3], "dtype": "int32"}, {"name": "8363", "shape": [3], "dtype": "int32"}, {"name": "PartitionedCall/model_1/tf.strided_slice_17/StridedSlice/strides", "shape": [3], "dtype": "int32"}, {"name": "PartitionedCall/model_1/output0/concat/axis", "shape": [], "dtype": "int32"}]}]}